SupervisedConv.pth (torch_old, 74691 bytes, 5 tensors)

weight f4 [16, 1, 3, 3]
000000 23 48 76 be dc fe 82 3d 58 28 20 bd 99 94 81 3e
       -0.24050955 0.06396267 -0.039100975 0.25308684
000010 8b a3 78 be ae b6 9d be 62 98 25 3e 0c 27 de bd
       -0.24281137 -0.30803436 0.1617141 -0.10847291
000020 7e 10 11 be af e0 9a 3e 8b 2e 6e 3d 38 21 23 3e
       -0.14166448 0.30249545 0.058149856 0.1593064
000030 bb 25 21 3d aa 69 44 be 25 2f 63 3e 63 fa 07 be
       0.039342623 -0.19180933 0.22185953 -0.13279109
000040 e3 38 b1 bd 39 b7 e0 bd 80 11 4a bd c0 e6 b3 3d
       -0.086534284 -0.10972447 -0.049333096 0.087842464
000050 9b 7d 10 be 00 c2 de 3b a0 91 72 bc 08 6e 05 3e
       -0.14110415 0.006798029 -0.0148052275 0.13030255
000060 18 75 44 be 4b 62 8e be 28 fb 3d be 65 c6 91 3e
       -0.19185293 -0.27809367 -0.1855284 0.28471676
000070 eb 71 51 3d f7 4b 82 3e d8 50 9a 3e 9f 78 22 bc
       0.05113403 0.25448582 0.30139804 -0.009916454
000080 01 54 a6 be 8d 0f e5 bd 13 5d 40 bd a4 b6 88 3e
       -0.32485965 -0.11184607 -0.046963762 0.26701844
000090 2c 6e 80 be f3 46 8d be c6 06 29 3e f6 b3 35 3e
       -0.25084054 -0.27593192 0.1650649 0.17744431
0000a0 0b fd 6d bd 99 f4 67 be c4 d1 0c 3e 0f 8f 29 3e
       -0.05810265 -0.226519 0.13751894 0.16558479
0000b0 d7 9c 70 be 4c 0d ed 3d 63 e6 00 be d0 a2 e7 3c
       -0.2349733 0.11574802 -0.12587886 0.028275877
0000c0 00 cc 4a 3d 54 3d 90 3d fe b5 99 be 40 d8 95 bd
       0.049510956 0.070429474 -0.30021662 -0.07316637
0000d0 e0 6a 0a 3d 00 fc 1b bd 58 0c fe bc 83 9c 17 3e
       0.03379333 -0.038082123 -0.031011745 0.14805798
0000e0 eb fb c2 bc e4 53 23 3e b7 86 e6 bd d5 5d 91 be
       -0.023801764 0.1594997 -0.112561636 -0.283919
0000f0 a2 18 66 3e 34 08 6c 3e 89 db 9f bd 6b 58 08 be
       0.22470334 0.23050004 -0.07805545 -0.13314979
000100 9c d0 1a be ce 45 46 be f1 ed 1c 3e 79 91 dd 3d
       -0.1511864 -0.19362566 0.15325142 0.10818762
000110 7c 5d 1c be ab 2d d5 3d 9a 3d 88 3e c8 84 2c be
       -0.15270036 0.10409101 0.26609498 -0.16847527
000120 ae d4 61 be ff e4 82 be e8 70 30 bd bb c6 8e be
       -0.22053787 -0.25565335 -0.043076426 -0.27885994
000130 c8 ff 48 be 95 08 50 3e e7 d0 46 3e a8 f2 4f be
       -0.19628823 0.20315774 0.19415627 -0.2030741
000140 a5 cc 66 3e d8 9f 1f be d6 4d 29 3e 3f 8a 30 be
       0.22539003 -0.1558832 0.16533598 -0.17240237
000150 48 5c 33 be 32 21 03 be 09 70 93 be c8 0a 81 be
       -0.17515671 -0.12805632 -0.28796414 -0.25203538
000160 c6 dd cc 3c d7 b7 86 3e d7 56 09 be b8 29 81 3e
       0.025008094 0.26312134 -0.13412033 0.2522714
000170 66 bd a4 3e 01 cd 3e be 5e 24 c0 bd e8 d6 80 3e
       0.3217575 -0.1863289 -0.093819365 0.2516396
000180 6d ff ac be f9 fb 40 be 87 e1 8d 3e 18 cb 58 be
       -0.33788624 -0.1884612 0.27711126 -0.21171224
000190 38 b8 8a 3e d6 85 f5 bd 0e ed 1f be eb 88 78 be
       0.27093673 -0.11988418 -0.15617773 -0.2427098
0001a0 1c 2d ff 3d 5f f9 01 3e 5d ea 7b 3c 5c 52 22 3e
       0.12459776 0.12692784 0.015375701 0.1585173
0001b0 b8 ee 49 be 02 30 84 be d7 fe 2d 3e a8 0b 84 3d
       -0.1971997 -0.25817877 0.16991745 0.06447536
0001c0 52 1d 63 3e b5 24 89 3e 82 23 2a be 44 14 f4 bd
       0.22179154 0.26785818 -0.16615108 -0.11917928
0001d0 2c 2b 27 3e a8 3d 3d bd 3e 93 bf 3d a7 af 4e be
       0.16325063 -0.046201378 0.09354256 -0.20184194
0001e0 82 13 a0 be b3 b3 64 bd 0e 07 6e 3c 00 0b c0 bd
       -0.31264883 -0.055835437 0.014528049 -0.09377098
0001f0 00 e9 83 3e 88 55 04 bd 43 46 6d be 93 10 a2 3e
       0.25763702 -0.03230813 -0.23171334 0.3165327
000200 20 a9 1f 3e 7b ef 5c be 13 77 63 be f5 22 1f be
       0.1559186 -0.2157573 -0.22213392 -0.15540679
000210 cb 9d 7a 3e 8c e5 24 be 19 bc 8a 3d d4 2d 94 be
       0.24474256 -0.1610319 0.06774158 -0.28941214
000220 6f 04 89 3e 71 33 69 be 89 17 76 3e 37 8f eb bd
       0.26761195 -0.2277353 0.24032415 -0.115019254
000230 90 f0 83 be 2e 70 9a 3e 88 31 73 be aa c7 91 3e
       -0.25769472 0.3016371 -0.23749363 0.28472644

bias f4 [16]
000000 ec bf bf bd 73 36 39 bb 84 c9 a7 bd a1 7c 74 be
       -0.09362778 -0.0028261214 -0.08192733 -0.23875667
000010 45 d0 57 be 86 89 5a 3e 24 86 d8 3d db 80 80 be
       -0.21075542 0.21341524 0.1057246 -0.2509831
000020 06 0f a9 3e 05 f4 6f 3e 2e 37 57 3e 90 64 16 bd
       0.33019274 0.2343293 0.21017143 -0.036716998
000030 0b 70 49 be 28 16 ee bd e5 0c 3c be a5 0a 27 3e
       -0.19671647 -0.1162532 -0.18364294 0.16312654

weight f4 [16, 16, 3, 3]
000000 00 c8 a8 bc 68 43 0b bd 62 4f a0 bd 38 88 03 bc
       -0.02060318 -0.03399983 -0.07827641 -0.008028083
000010 00 ca 6f 3b c1 bc 9e 3d 00 cf 66 bb 0e 9f 65 bd
       0.0036588907 0.07750846 -0.0035218596 -0.05605989
000020 0e c5 7c bd cc a8 6c 3d 94 3e 78 3d e2 e5 92 3d
       -0.061711363 0.057778165 0.060606554 0.07172753
000030 1f b0 6c 3c 8d 96 32 3d e8 bd 6b 3c 96 53 9c 3d
       0.014446287 0.043600608 0.014388539 0.0763313
000040 2e 95 b9 bc 57 cc c7 bc 00 4b c9 b9 66 c5 4a 3d
       -0.022654142 -0.024389429 -0.00038393587 0.04950466
000050 7a cd 3e 3d 80 84 eb 3b 35 d8 99 3d a9 ad 9a 3d
       0.046582676 0.007187426 0.07511941 0.07552654
000060 00 bd a0 ba 5d 22 93 3d 4f dc 8f bd 67 45 e3 3c
       -0.0012263358 0.07184289 -0.070244424 0.027743055
000070 84 c3 11 3d 19 b4 e7 bc 71 81 99 bd 95 7a 91 3d
       0.03558685 -0.02828412 -0.07495392 0.07103459
000080 65 14 8f 3d 18 0a 83 3d 3c 18 79 bd 1a f7 5c 3d
       0.06986312 0.063984096 -0.060814127 0.053946592
000090 40 92 38 bc f7 bc 9c bd 65 b3 88 3d 8c 1b 83 bc
       -0.0112653375 -0.0765323 0.06674842 -0.016004346
0000a0 83 95 dc bc 27 59 70 bd ae 5c 8a bd 50 a9 cd bb
       -0.026926761 -0.058678772 -0.067559585 -0.006276287
0000b0 a0 ad 4f 3b 7e a3 26 3d fc 11 93 bc 78 1a 17 bd
       0.0031689182 0.040683262 -0.017952912 -0.036890477
0000c0 a8 a1 56 bd a0 9b 58 bd 0a 9f 69 3d 60 d5 dc 3c
       -0.05240026 -0.05288279 0.057036437 0.026957214
0000d0 d0 d1 0a 3d b8 15 26 3d 24 39 05 3d 97 25 25 bb
       0.0338915 0.040548056 0.032525197 -0.0025199407
0000e0 b9 a0 3e bb 3d e4 27 3d 81 0e 1a bd ff 79 d5 bc
       -0.0029087497 0.04098915 -0.03761149 -0.026059149
0000f0 cc 4a a8 3c 49 3f 96 bc 38 67 49 bd 7f 1e 06 be
       0.020543478 -0.018340724 -0.049170703 -0.13097571
000100 c7 49 b0 bd ca 0f 79 bd 8c 24 68 bc ee 8a a3 3c
       -0.08607822 -0.060806073 -0.01416887 0.019963708
000110 0d dd eb 3b 2e 67 bc bc fa 42 22 be 2f 0b 3d bd
       0.007197982 -0.022998419 -0.15845862 -0.046153244
000120 08 1d 3f bd 2c b4 c6 bc 7d 1f 86 3d 69 d8 6a bd
       -0.046658546 -0.024255835 0.06548975 -0.05733529
000130 e2 29 53 bd 0e 0d 21 bd 6a 23 31 3d a0 b4 66 bb
       -0.051553614 -0.03931909 0.043246664 -0.0035202876
000140 00 c0 60 bb 00 14 34 3a 09 c9 e7 3c 8e 29 3b bd
       -0.0034294128 0.00068694353 0.028294103 -0.045693927
000150 78 80 16 bd 52 38 e0 bc 98 cc 78 3c 00 e9 81 3b
       -0.03674361 -0.027370606 0.015185498 0.0039645433
000160 fd 6f 2d 3c 44 8f 8f 3c 38 fe 62 3d 95 2c bf bd
       0.010585782 0.017524369 0.055418223 -0.09334675
000170 8e 0d fe bc 6d 90 80 bd e4 bd 15 bd f7 5b 7e bd
       -0.031012323 -0.06277547 -0.036558047 -0.062099423
000180 e8 2a b7 3c ca 35 7f 3d 3a 26 7a bd b3 22 82 3c
       0.022359326 0.062307157 -0.061071612 0.015885687
000190 69 64 d0 3d 7d de b8 3c 02 e1 ff 3d bc af 37 3d
       0.10175402 0.022567028 0.12494089 0.044845328
0001a0 4f 7b 94 3d ae 15 80 bc 66 02 af bd a1 1f f7 bc
       0.07250082 -0.015635338 -0.08545379 -0.030166449
0001b0 d6 b3 fb bb e4 7b 17 bd 37 50 c5 3b d9 4c 8e 3d
       -0.00768135 -0.036983386 0.0060215252 0.06948251
0001c0 c1 b3 10 bd 7d e0 59 bc dc 63 26 3d 2b 9e 5f bd
       -0.035327677 -0.013298151 0.040622577 -0.0545942
0001d0 bc ec ac bd 04 b1 89 3c 3f a2 7e bd c0 d7 b4 bb
       -0.08443591 0.01680804 -0.06216645 -0.0055188835
0001e0 3a d5 10 3d d5 f1 08 3d b3 57 8d bd f0 bc d4 bb
       0.0353596 0.033433754 -0.06901493 -0.0064922497
0001f0 2d df f6 bc 1a 5a 23 3d 8b 55 f6 3b d6 5c bf 3c
       -0.030135715 0.03988085 0.0075175217 0.023359697
000200 bd c0 94 3d 2e 64 b0 3d bc c6 ab 3b 38 8e ed 3d
       0.072633244 0.08612858 0.005242197 0.11599392
000210 4d 03 d5 bd c0 35 06 be d1 c2 07 be 61 01 a3 bd
       -0.1040102 -0.13106441 -0.1325791 -0.079592474
000220 98 15 91 bd 67 5e 09 3d ad ed 99 bd 78 54 c1 3d
       -0.07084197 0.033537295 -0.07516036 0.09439939
000230 98 88 68 bc 39 3c 18 3c 1c 55 64 bd fa 18 10 bd
       -0.014192723 0.009291702 -0.05574523 -0.03518007
000240 b6 e9 ff bc 53 e9 75 bd 2b b7 2b bd ee 84 a6 bd
       -0.031239372 -0.06003697 -0.04192273 -0.08130823
000250 b0 59 80 bc d5 c5 91 3d 68 ed 1c 3c 3c 61 9d 3c
       -0.015667766 0.071178116 0.009578086 0.019211404
000260 80 e4 77 3b f1 63 75 3c 78 b3 10 3d 55 ad ce 3c
       0.0037825406 0.014977441 0.035327405 0.025229136
000270 62 04 9d 3d 9b 8c a9 3d af 10 51 3d 8e a8 41 3d
       0.076668516 0.082787715 0.0510413 0.047279887
000280 86 d9 06 bc a8 f3 3e 3d 72 0e 53 3d 0c 83 bb bc
       -0.008230573 0.046619087 0.051527448 -0.022889636
000290 da 7e 40 3d 14 76 f3 3c ca 77 73 3d e6 8a 6b 3d
       0.046995975 0.02971939 0.05944041 0.05750551
0002a0 06 1b 1b bd 8b cb 1e bd f6 14 27 3d 8a 1b f6 3b
       -0.03786757 -0.038768332 0.040791474 0.007510607
0002b0 36 c9 49 bd a5 df 6d bd c6 c4 85 3d 0a 0e 80 bd
       -0.049264155 -0.058074612 0.06531672 -0.06252678
0002c0 c5 58 a7 3d 0c 53 9f bc 8a fa 76 3d 5c d8 a3 bb
       0.08171228 -0.01944878 0.060297526 -0.0050001573
0002d0 00 ad 4d bd 74 cb d9 3c e2 c1 9d bd 38 3b f5 bc
       -0.050213814 0.026586272 -0.07702996 -0.029935464
0002e0 1e df 8f 3d 4f b6 9c bd e0 4b ba 3c 5b 98 86 3d
       0.07024978 -0.0765196 0.022741258 0.06572028
0002f0 80 00 a8 3c c0 d7 3b bc 5f 05 a8 3d 42 90 76 3d
       0.02050805 -0.011465013 0.082041495 0.06019617
000300 dc 51 9c bd c2 4b 1f 3d 62 47 52 3d 48 ba 73 bd
       -0.07632801 0.038890608 0.051337607 -0.059503824
000310 bc 4d 8a bd 40 da 9f 3c d5 cf 64 3d 65 b8 17 3d
       -0.06753108 0.01951325 0.055862267 0.037041087
000320 92 a9 ba bc d7 f9 17 bd 5d 32 6b 3b d9 57 64 3d
       -0.022785936 -0.0371035 0.0035888173 0.05574784
000330 37 a2 a3 bd 00 2e 12 bd f1 0e b8 bc 0c 8a b1 bd
       -0.079899244 -0.0356884 -0.022468062 -0.086689085
000340 4e 05 3a 3b 86 26 1b be d6 b3 49 3c 8c 75 22 bd
       0.002838451 -0.15151414 0.012310943 -0.039662883
000350 ee 18 9b bc fd bf 1f 3b 7b eb 26 3e bc 6c b0 3d
       -0.018932786 0.0024375909 0.16300766 0.086144894
000360 ac 63 8c bc 2a 10 02 3d c0 82 fb 3a 0c a8 b7 bd
       -0.017137371 0.031753697 0.0019188747 -0.08967599
000370 5e e6 b7 3c 32 d2 a8 bc b8 df a8 bd dc 65 d6 3c
       0.022448715 -0.020608041 -0.08245796 0.026171617
000380 92 75 14 3d 4b 07 2b bd 49 3a 29 bd 8a 44 0b 3d
       0.036244936 -0.041755002 -0.04131535 0.03400091
000390 b0 30 5e bd 05 02 c0 3d 1c 79 fa bc 9c bc a8 bc
       -0.05424565 0.09375385 -0.030575328 -0.020597748
0003a0 a0 2c 91 bd 54 c9 da 3c cf fe 4e bd 05 eb 0a 3d
       -0.0708859 0.026707329 -0.050535973 0.03391554
0003b0 34 fe 67 3d 55 28 b9 3d 0b 22 7d bd 49 eb 8f bd
       0.05663891 0.09040896 -0.061800044 -0.07027299
0003c0 f0 7c 61 3d 6d f5 84 3d 3d a2 41 bc 00 b2 66 3d
       0.05505079 0.06492124 -0.011818466 0.056322098
0003d0 30 60 5b 3c 4e cf 6a bd c0 0a 58 bd 75 c8 e8 3c
       0.013389632 -0.057326607 -0.052744627 0.028415898
0003e0 d7 b7 fc 3c 4b 08 dc 3c 43 db 38 bd 22 65 98 3c
       0.03084938 0.026859423 -0.04513098 0.018602911
0003f0 39 c4 2d be 8a 99 25 3d 7e 9b 64 bd 0a aa 28 bd
       -0.16969384 0.04042963 -0.05581235 -0.041177787

bias f4 [16]
000000 d9 7f fc bd 0a 2a 7a bd d9 44 9c bd 8b 21 28 bd
       -0.123290725 -0.061075248 -0.07630319 -0.041047614
000010 11 3a 0b 3d c6 1e 3f bd e3 c7 5a bd 49 c2 2d bd
       0.033990923 -0.046660207 -0.053413283 -0.042421613
000020 ca 1f ab 3d 9d bb 54 bc 27 f4 2f bd ef a7 dc bd
       0.08355673 -0.012984184 -0.04295745 -0.10774218
000030 57 05 99 3d 18 7c 0e bd 7c 6e 76 bd 31 13 2f 3d
       0.074717216 -0.034786314 -0.06016396 0.04274291

weight f4 [1, 16, 3, 3]
000000 5c f0 af 3d 0d a6 81 3d 94 a9 3c 3d 4a aa 25 bd
       0.08590767 0.063305 0.04606016 -0.040445603
000010 41 6a 9c 3c bd b1 95 bd a2 29 a6 3d 87 b7 1f 3c
       0.019093635 -0.073092915 0.081134096 0.009748346
000020 56 84 7d bd c5 4b 82 ba 45 c1 9f 3d 26 91 62 bc
       -0.061893784 -0.0009940794 0.07800535 -0.013828551
000030 91 31 43 3d 67 a1 99 3d b2 56 6b bc 7b 59 b8 3c
       0.047654692 0.07501488 -0.0143639315 0.022503605
000040 f6 51 d9 bc b9 93 06 3d 0f 51 11 bd 36 ef 73 bd
       -0.02652834 0.032855723 -0.035477694 -0.0595543
000050 3d 51 e1 bd 38 b8 6c bd d3 39 88 bd 44 98 b3 bd
       -0.11001823 -0.057792872 -0.06651654 -0.08769277
000060 fe a2 83 3d 34 cf 2a 3d 0e 9b 9d 3d f9 c8 85 3d
       0.06427573 0.04170151 0.0769559 0.06532473
000070 7f 7b 88 bd 0d a5 83 3d 43 97 55 bd 55 4a a0 3d
       -0.0666418 0.06427965 -0.052146208 0.07826678
000080 76 74 65 3d da 33 10 3d bb a2 9d 3d 00 aa 5a 3c
       0.05601927 0.0352057 0.07697054 0.013346195
000090 a0 39 92 3c 69 bf 41 3c 30 a6 7a 3d 00 23 a2 3d
       0.017849743 0.011825421 0.061193645 0.07916832
0000a0 44 24 80 3c 20 c5 c5 3c 40 bb 31 bd f1 c7 24 bd
       0.015642293 0.024141848 -0.043391466 -0.04022974
0000b0 d2 ee 69 ba 42 a0 70 3d f6 49 00 3d 31 d9 84 3d
       -0.00089238316 0.058746584 0.031320535 0.064867385
0000c0 9f a4 8b bd 36 b0 18 3d 82 20 52 3d 33 54 a3 3d
       -0.06818508 0.037277423 0.051300533 0.07975044
0000d0 02 bc 63 3d 48 67 5f bc 92 5d 63 3d 58 bb 5a bc
       0.05559922 -0.013635464 0.055509157 -0.01335033
0000e0 e6 fe 0e 3d 22 94 a5 bd 18 c5 0c bc 7c c8 a9 3c
       0.03491106 -0.08084895 -0.008591913 0.020725481
0000f0 a0 f4 5a 3c 73 4d 44 bd 28 3f 0b bc 99 33 68 3d
       0.013363987 -0.047925424 -0.008498944 0.056689832
000100 d9 28 a5 3c da a1 f4 3c 16 2e 54 3d 70 5a 54 ba
       0.02016108 0.029862333 0.051801763 -0.00081006344
000110 d2 0b b4 bc 73 1c af 3c 4c e1 05 bd 8e c8 47 bd
       -0.021978293 0.02137587 -0.032685563 -0.04877525
000120 ba e3 6f bd 70 d7 aa bd 49 02 d0 bd 81 19 9c bb
       -0.058566786 -0.08341873 -0.10156686 -0.0047637825
000130 c9 9a 9a 3d 86 7f 44 3d be d2 98 bc 48 c8 71 bd
       0.07549054 0.04797318 -0.018655177 -0.059028894
000140 a4 48 2e 3e 60 9c d5 3d 4c a4 70 3d ab ab b7 3b
       0.17019898 0.10430217 0.058750436 0.005605181
000150 cd f5 40 bd ba e9 8e 3d ca ca 75 3c 9a 39 7b bd
       -0.047109414 0.069781736 0.015001962 -0.06133423
000160 58 89 17 bd de aa 9d bd cd 93 a7 3d a5 c4 aa 3d
       -0.036996216 -0.07698606 0.08182488 0.08338288
000170 e2 59 93 3d 4f bc 3d bd d6 54 86 3a 9b 6f 04 bc
       0.07194878 -0.046322163 0.0010248672 -0.008083249
000180 a0 d3 40 3c 3f 05 bf bc 44 77 ba 3d 59 15 8c 3d
       0.011769205 -0.023317931 0.09104779 0.06840009
000190 0a a3 b2 3d 09 9b 88 bd 9d 36 4e bd 4e 0d 8d 3d
       0.087225035 -0.066701956 -0.050345052 0.06887303
0001a0 ab 17 9d 3c 4d d0 6a bd 68 ab a7 3d 1e f0 01 3c
       0.019176325 -0.057327557 0.0818699 0.007930784
0001b0 73 3c a9 bd 45 b7 75 bd cd 8b 97 3d 06 a9 85 3d
       -0.08263483 -0.059989233 0.07399712 0.06526379
0001c0 20 d0 56 3d f0 4e 48 bd 36 7e 82 bd 18 e8 16 bd
       0.052444577 -0.048903406 -0.06371729 -0.036842436
0001d0 f4 75 88 bd de 83 38 bd 89 f2 95 3d 22 b7 9e 3d
       -0.06663123 -0.045047633 0.073216505 0.077497736
0001e0 7a a9 a7 bd 23 34 bc 3c e5 4f 30 bc 9b 12 99 3d
       -0.08186622 0.02297408 -0.010761236 0.07474252
0001f0 b0 73 16 3e dd 01 89 3c ec b7 de bc b2 e7 3c bd
       0.14692569 0.016724521 -0.02718731 -0.0461194
000200 6c ec ee bc 78 51 0f bc a0 20 90 bd 9b d4 95 bd
       -0.02916547 -0.008747451 -0.07037473 -0.07315942
000210 60 3b 75 3c 76 08 82 3d 2b 0c 68 bd 2c cc 4e 3d
       0.014967769 0.0634927 -0.05665223 0.050487682
000220 39 1d ec bb ea 2b a6 3d 62 21 89 bd fc 35 00 3d
       -0.007205632 0.08113845 -0.066958204 0.031301484
000230 0d 3f a5 bc fb 0b 64 3d 8b b9 93 bd c6 ad 99 bd
       -0.020171667 0.055675488 -0.07213124 -0.07503848
