SupervisedLinear.pth (torch_old, 95035 bytes, 11 tensors)

weight f4 [64, 32]
0.03845184 0.057923853 0.124227695 0.019775214 -0.070896424 0.06247245 -0.02072149 0.07289733
-0.08936015 -0.011655941 -0.10178809 0.17487848 -0.1521865 0.10663895 0.08278125 -0.07610701
-0.018399311 -0.1276518 -0.0070693674 0.1176621 -0.13957785 0.057862025 -0.17189597 0.06555494
-0.08292116 0.1583945 -0.10394761 -0.102337666 0.08901211 -0.020475445 -0.019594304 0.035784073
-0.15265958 0.052203916 0.10076693 -0.032209985 -0.049495213 -0.09609798 -0.03546461 0.116423294
-0.16552594 -0.089888416 0.038268372 0.18224691 -0.16567408 0.008553795 0.06988946 0.023785569
-0.052305862 0.18415861 -0.13342866 -0.024757506 0.13192189 0.13456182 0.0101621 0.044012245
-0.13088024 -0.02196813 -0.11119517 -0.15733127 -0.13515508 0.17201771 0.063835494 0.07759639
-0.1591878 -0.10709252 0.05228272 0.13742673 0.15582299 0.16394217 -0.029958514 0.16762209
0.1137686 0.11370304 -0.16550829 0.11511602 0.022651132 0.020871963 -0.013657953 -0.1383434
0.035590094 0.13065134 0.1416013 0.0716399 -0.07784029 -0.06368934 0.031202283 0.11044407
0.05892373 -0.077486165 0.07392674 -0.11256468 -0.05439665 -0.16099718 -0.11769057 -0.12684806
0.11562548 -0.06553183 -0.091635175 -0.13252969 -0.17602119 0.15579677 0.05251115 0.072311155
0.00095020357 -0.14492133 -0.026011392 -0.058404397 0.15541086 -0.07905462 0.14415044 -0.11601506
0.13367243 0.08951051 -0.05377228 -0.17306238 0.112408616 -0.108590186 -0.1058078 0.002177876
0.07091274 -0.09696848 0.14137366 0.12975869 0.099198155 -0.03144746 -0.12660521 -0.16501433
1.8523955e-05 -0.02056143 -0.07512165 -0.08534624 -0.020232843 -0.062000573 -0.077913664 0.019632021
0.08466042 -0.08187343 -0.07583615 0.12642947 0.08838821 0.10201418 0.113451466 0.13089679
-0.05780432 -0.0185535 0.18183903 0.01026349 0.1205345 0.11716056 -0.10293995 0.08933174
-0.09961442 -0.10703308 0.06531821 0.13440156 -0.12145903 0.0011241045 -0.10528781 0.12705976
-0.13613296 0.14896047 -0.02323585 0.12023829 0.07043947 -0.023544075 0.1767184 -0.05636133
0.014541267 -0.09746807 0.004121673 0.0884497 0.0037008238 0.0539312 0.028002968 -0.10363956
0.07825594 -0.0005497369 -0.16224852 -0.036318377 0.016838165 0.10276275 -0.033066433 0.041011117
-0.10073817 -0.018753184 0.13699566 -0.00591549 0.17668457 0.08961335 0.015770327 0.0071666357
0.16638042 -0.07013133 0.005121874 -0.08893454 0.13609703 -0.041253477 -0.103434905 -0.07937726
0.052238867 0.13698836 -0.049852796 -0.1523943 -0.13442428 -0.15928423 0.16200915 0.15603736
0.146606 -0.114875466 0.047515884 -0.14122756 -0.16175644 -0.10053869 0.021239812 0.064885005
-0.109436594 0.095141016 -0.10376491 -0.08395975 -0.015163141 0.092816345 -0.013033748 0.07972742
0.10535468 -0.15005751 -0.07315216 -0.16432515 0.10197712 -0.014648871 -0.08887328 0.11308957
0.12149295 -0.15698636 -0.094808504 0.0572024 -0.16682738 -0.025239268 -0.13077766 -0.12866831
0.037834555 0.06730989 -0.02110428 -0.056606907 -0.028658891 -0.08798189 -0.036592294 -0.10657788
-0.09079616 0.12674567 -0.06927297 0.045534026 0.09398078 0.10904902 0.048086245 -0.13648915
00000000: ad7f 1d3d 9041 6d3d 176b fe3d a1ff a13c
00000010: 2532 91bd 1de3 7f3d 1dc0 a9bc 324b 953d
00000020: 7402 b7bd 8ff8 3ebc 4676 d0bd 5813 333e
00000030: c7d6 1bbe 8665 da3d 3789 a93d fedd 9bbd
00000040: 27ba 96bc 27b7 02be 27a6 e7bb d4f8 f03d
00000050: 7fed 0ebe bb00 6d3d 7f05 30be ab41 863d
00000060: 92d2 a9bd 2b32 223e 7ce2 d4bd 6996 d1bd
00000070: fb4b b63d 1fbc a7bc 3c84 a0bc 5292 123d
00000080: cb52 1cbe c6d3 553d e45e ce3d 9eee 03bd
00000090: 7ebb 4abd 05cf c4bd 5743 11bd 566f ee3d
000000a0: a27f 29be 6b17 b8bd 4cbf 1c3d ef9e 3a3e
000000b0: 77a6 29be 3725 0c3c 3522 8f3d f4d9 c23c
000000c0: ac3e 56bd 1394 3c3e 86a1 08be 41d0 cabc
000000d0: 8816 073e 93ca 093e f07e 263c 2f46 343d
000000e0: 7805 06be 82f6 b3bc 4bba e3bd 731b 21be
000000f0: 1866 0abe 6925 303e 2fbc 823d dbea 9e3d
00000100: 2002 23be 5353 dbbd 6826 563d 98b9 0c3e
00000110: 1090 1f3e 75e0 273e 8f6b f5bc 20a5 2b3e
00000120: 83ff e83d 24dd e83d 017b 29be f3c1 eb3d
00000130: de8e b93c aefb aa3c 9bc5 5fbc e4a9 0dbe
00000140: ebc6 113d 77c9 053e eeff 103e f1b7 923d
00000150: bb6a 9fbd 8f6f 82bd ee9b ff3c 8030 e23d
00000160: 025a 713d 11b1 9ebd e766 973d 5088 e6bd
00000170: 06cf 5ebd 72dc 24be c107 f1bd 75e4 01be
00000180: 0dcd ec3d 8d35 86bd 39ab bbbd ddb5 07be
00000190: e63e 34be 3089 1f3e ee15 573d df17 943d
000001a0: 1517 793a 4266 14be d815 d5bc 7339 6fbd
000001b0: 0624 1f3e 63e7 a1bd 2c9c 133e 4e99 edbd
000001c0: 6de1 083e 4951 b73d 5340 5cbd 4437 31be
000001d0: 7d36 e63d 8864 debd c3b1 d8bd b2ba 0e3b
000001e0: b33a 913d 6997 c6bd 42c4 103e 76df 043e
000001f0: 6728 cb3d 0dcf 00bd cca4 01be 84f9 28be
00000200: e463 9b37 7270 a8bc 61d9 99bd 02ca aebd
00000210: 59bf a5bc 50f4 7dbd 3391 9fbd 55d3 a03c
00000220: 7162 ad3d 42ad a7bd fc4f 9bbd ba76 013e
00000230: e104 b53d cfec d03d 3e59 e83d cf09 063e
00000240: 39c4 6cbd 82fd 97bc 0334 3a3e 3228 283c
00000250: cbda f63d e0f1 ef3d 2ed2 d2bd 8ff3 b63d
00000260: a502 ccbd 2934 dbbd 8ec5 853d 90a0 093e
00000270: 83bf f8bd b056 933a 23a1 d7bd f41b 023e
00000280: 7066 0bbe 1889 183e 1c59 bebc 7e3f f63d
00000290: 9242 903d 81df c0bc abf5 343e 23db 66bd
000002a0: 7f3e 6e3c 579d c7bd 190f 873b 1e25 b53d
000002b0: 8589 723b f6e6 5c3d 7b66 e53c fa40 d4bd
000002c0: a644 a03d 381c 10ba 7a24 26be 94c2 14bd
000002d0: 31f0 893c 4775 d23d ab70 07bd 46fb 273d
000002e0: d04f cebd 47a0 99bc 9748 0c3e bad6 c1bb
000002f0: cdec 343e 3487 b73d c630 813c 19d6 ea3b
00000300: a15f 2a3e 04a1 8fbd 65d5 a73b 5023 b6bd
00000310: 055d 0b3e 68f9 28bd aed5 d3bd 8b90 a2bd
00000320: 6cf8 553d ad46 0c3e 7232 4cbd 400d 1cbe
00000330: 85a6 09be 681b 23be bae5 253e 42c8 1f3e
00000340: e21f 163e d443 ebbd 04a0 423d f59d 10be
00000350: 7ba3 25be 3be7 cdbd 1dff ad3c 6ee2 843d
00000360: 4b20 e0bd 4bd9 c23d b282 d4bd 17f3 abbd
00000370: d36e 78bc 7f16 be3d 808b 55bc 2148 a33d
00000380: 32c4 d73d ada8 19be cdd0 95bd da44 28be
00000390: 61d9 d03d d101 70bc 3203 b6bd 819b e73d
000003a0: 4cd1 f83d 08c1 20be f62a c2bd 104d 6a3d
000003b0: ccd4 2abe 95c2 cebc 94ea 05be a0c1 03be
000003c0: 68f8 1a3d c5d9 893d e2e2 acbc a5dc 67bd
000003d0: 0dc6 eabc d92f b4bd cde1 15bd 8145 dabd
000003e0: 56f3 b9bd 9ec9 013e fdde 8dbd e381 3a3d
000003f0: ff78 c03d 1855 df3d 15f6 443d d0c3 0bbe

bias f4 [64]
0.07743508 0.0021371858 0.12530419 0.16114913 0.007910885 0.087953135 0.030215072 0.022328738
-0.06960978 -0.13932766 -0.15991725 -0.037981357 -0.09504126 -0.11073299 0.19944547 0.09419459
-0.03370987 -0.038685832 -0.13897808 -0.0408524 0.077513084 -0.07159558 0.13708392 0.016116058
0.04755835 -0.019182935 -0.1507827 0.12093147 0.15102763 -0.14271063 0.1510349 -0.12155812
0.081034794 -0.046622556 0.053976566 -0.028466258 -0.12528923 0.057242706 -0.12988955 -0.057024106
-0.0735148 0.14601018 -0.14879796 0.19286378 0.10311969 0.07117315 0.12397958 -0.017790066
-0.122746296 0.033464134 -0.07770132 0.07114298 0.032785278 0.08943732 0.17197715 0.11097395
0.028923837 0.108846255 0.08419567 -0.047607545 -0.1085325 0.021319967 -0.011280016 0.14657265
00000000: 4996 9e3d 0710 0c3b be4f 003e 4704 253e
00000010: a89c 013c c620 b43d 9985 f73c c2ea b63c
00000020: 938f 8ebd e9ab 0ebe 59c1 23be 5792 1bbd
00000030: fea4 c2bd fac7 e2bd 6f3b 4c3e 18e9 c03d
00000040: 5c13 0abd 0975 1ebd 4550 0ebe d954 27bd
00000050: 2ebf 9e3d b4a0 92bd ba5f 0c3e d305 843c
00000060: 8bcc 423d 8825 9dbc c866 1abe ebaa f73d
00000070: fda6 1a3e bc22 12be e5a8 1a3e 77f3 f8bd
00000080: 92f5 a53d 4bf7 3ebd 8816 5d3d 1232 e9bc
00000090: d24b 00be 5477 6a3d c401 05be 1c92 69bd
000000a0: ed8e 96bd b183 153e 7e5e 18be 157e 453e
000000b0: 6b30 d33d 3ac3 913d 02e9 fd3d 79bc 91bc
000000c0: 6962 fbbd b011 093d df21 9fbd 69b3 913d
000000d0: db49 063d ea2a b73d c71a 303e 4f46 e33d
000000e0: aff1 ec3c c9ea de3d c86e ac3d 2100 43bd
000000f0: 4a46 debd 36a7 ae3c d1cf 38bc 2417 163e

weight f4 [128, 64]
-0.0010214996 -0.074256234 -0.055308644 0.03562981 -0.020073876 0.10057688 0.084767215 -0.04015213
0.10762006 -0.0817127 -0.08410986 0.024256373 -0.025239417 -0.048489194 -0.016483724 -0.013612243
-0.07924403 0.1054989 -0.053997286 0.031586245 0.105396666 -0.09160135 0.049110975 -0.065021314
-0.009696047 0.0328719 -0.01672904 0.07210645 -0.06776847 -0.12311427 -0.12682568 -0.12625052
0.05201029 0.028249538 -0.066024914 -0.041133046 0.12620993 -0.03673617 0.039690606 -0.07681689
-0.06709786 -0.06763478 0.108669624 0.08917316 -0.01908539 -0.03537907 -0.038232632 -0.066684216
0.043499302 0.025867606 -0.016653746 -0.02712003 0.057403803 0.043902393 0.084010705 -0.12475182
-0.104598306 0.11569684 0.03491975 0.114628695 0.01941243 0.033836704 0.12801859 -0.0036032484
-0.111555815 -0.048042934 -0.077880315 0.06558804 0.012836824 0.11526466 -0.09394525 0.034075066
0.037866905 -0.046937786 0.083485976 -0.040213328 0.067351796 -0.06900527 -0.041828535 -0.026448976
-0.107609525 0.09926598 -0.019940998 -0.02885355 0.11902765 0.0049244137 0.05522816 0.07134398
-0.12277661 0.053018026 -0.03501381 0.019579185 0.09423852 -0.10276561 -0.09177203 0.083097614
-0.032442737 -0.07651572 0.0023901374 -0.119163126 0.100077555 -0.001968925 0.11046013 -0.028886862
-0.06975639 0.042395502 -0.07234045 -0.12670171 0.057196897 -0.012970332 0.026611725 0.11792661
-0.0898445 0.08896007 0.07872479 0.10673685 0.08524534 0.06787942 -0.05989648 -0.08057207
0.057598498 -0.06667315 -0.04853687 0.085921794 0.05001567 -0.019695211 0.07406365 -0.076940924
0.10229286 0.090813905 0.0202541 -0.040682983 -0.04522654 0.106367625 -0.06587561 -0.10199843
0.043389667 -0.06123141 -0.11163666 -0.07628106 -0.006879276 0.011033094 -0.09345714 0.0007048479
0.0862634 0.027562695 -0.10881635 -0.14217962 -0.05977438 -0.010728589 -0.02346781 0.078777574
-0.0019269184 0.012217864 0.09052004 -0.014756662 -0.067488834 -0.01459916 -0.10169333 -0.0025808963
0.020573284 0.026783478 0.11698188 -0.11488876 -0.1244708 -0.03428031 0.119650036 0.04033494
-0.014364482 -0.08177165 -0.05837467 0.03670144 0.0682923 0.06796851 -0.0876859 0.10793606
0.12562203 0.09235033 -0.100927524 -0.09662537 -0.101597756 -0.11304876 -0.1069337 0.038136583
-0.048484493 0.072116524 0.06318482 0.094246514 -0.08487766 0.013505506 -0.13728678 -0.044718962
-0.083371624 -0.058012288 -0.006379222 -0.065175064 -0.018797398 -0.044730633 0.1231255 -0.06251583
0.09299803 0.07177261 -0.06869315 -0.03907863 0.13586235 0.07460703 -0.117761835 -0.13306956
0.008238689 0.12990813 -0.03666015 0.096283406 -0.0073871105 -0.026215965 0.09986334 0.0956309
-0.056750976 0.08616423 0.10974798 0.01851263 0.011297568 -0.041059364 -0.10290121 0.07325599
0.1012005 -0.069604024 0.0823731 0.10823768 0.023323625 0.013444851 -0.06218105 -0.123123586
-0.09722785 0.07033029 0.016803242 -0.0006585582 -0.06856645 0.076727405 0.10632593 0.013598289
-0.022392249 -0.12633736 -0.11608943 0.0699488 -0.13251111 -0.051005304 0.048109148 -0.07968398
0.1098421 -0.013973394 -0.0028986305 0.073383264 0.113589145 -0.0054511377 0.023507828 -0.03035337
00000000: d7e3 85ba a713 98bd 518b 62bd 90f0 113d
00000010: f871 a4bc 40fb cd3d 6f9a ad3d 8f76 24bd
00000020: e867 dc3d fd58 a7bd ca41 acbd 4db5 c63c
00000030: e5c2 cebc 9b9c 46bd e008 87bc e305 5fbc
00000040: b24a a2bd cf0f d83d 422c 5dbd 9460 013d
00000050: 35da d73d 7d99 bbbd 9728 493d e529 85bd
00000060: 2bdc 1ebc afa4 063d 570b 89bc 8cac 933d
00000070: 32ca 8abd 5623 fcbd 97de 01be d147 01be
00000080: be08 553d 936b e73c 1238 87bd 207b 28bd
00000090: 2d3d 013e ab78 16bd 9e92 223d 2c52 9dbd
000000a0: 9a6a 89bd 1b84 8abd 2e8e de3d 6ba0 b63d
000000b0: f758 9cbc a5e9 10bd d299 1cbd bc91 88bd
000000c0: 532c 323d 4de8 d33c 706d 88bc d32a debc
000000d0: 4020 6b3d ffd2 333d ce0d ac3d e27d ffbd
000000e0: a337 d6bd 77f2 ec3d 0308 0f3d 73c2 ea3d
000000f0: d106 9f3c 5b98 0a3d 4e17 033e 7a24 6cbb
00000100: 6077 e4bd abc8 44bd b77f 9fbd 0653 863d
00000110: 8b51 523c e10f ec3d 5e66 c0bd 4c92 0b3d
00000120: 541a 1b3d d641 40bd b2fa aa3d bbb6 24bd
00000130: bdef 893d a352 8dbd 6654 2bbd 86ab d8bc
00000140: 6262 dcbd f64b cb3d 4e5b a3bc 485e ecbc
00000150: c5c4 f33d fa5c a13b ec36 623d cb1c 923d
00000160: 4e72 fbbd 6e29 593d a46a 0fbd 8764 a03c
00000170: 2000 c13d c776 d2bd f9f2 bbbd 152f aa3d
00000180: ade2 04bd 46b4 9cbd daa3 1c3b cc0b f4bd
00000190: 76f5 cc3d 1409 01bb ec38 e23d 24a4 ecbc
000001a0: 70dc 8ebd e8a6 2d3d 3b27 94bd 18be 01be
000001b0: 4b47 6a3d 8481 54bc d500 da3c 8283 f13d
000001c0: 6500 b8bd b230 b63d 763a a13d da98 da3d
000001d0: 1c95 ae3d 5e04 8b3d 0356 75bd f802 a5bd
000001e0: 67ec 6b3d ef8b 88bd 99ce 46bd c4f7 af3d
000001f0: 3bdd 4c3d da57 a1bc afae 973d 3493 9dbd
00000200: eb7e d13d a4fc b93d edeb a53c 33a3 26bd
00000210: 773f 39bd 45d7 d93d cbe9 86bd 8ee4 d0bd
00000220: 5db9 313d c9cd 7abd c3a1 e4bd 3f39 9cbd
00000230: 8d6b e1bb 26c4 343c 7566 bfbd 8bc5 383a
00000240: deaa b03d 29cb e13c 1bdb debd 8997 11be
00000250: fbd5 74bd f7c6 2fbc 913f c0bc 2356 a13d
00000260: a790 fcba 702d 483c 9262 b93d edc5 71bc
00000270: 9637 8abd 5131 6fbc 9844 d0bd 4124 29bb
00000280: 4e89 a83c 0669 db3c 3294 ef3d cc4a ebbd
00000290: 8cea febd 8369 0cbd 140b f53d 4036 253d
000002a0: 0159 6bbc e577 a7bd 471a 6fbd 4054 163d
000002b0: d5dc 8b3d 1333 8b3d aa94 b3bd 950d dd3d
000002c0: 10a3 003e 2b22 bd3d 17b3 cebd 86e3 c5bd
000002d0: 7c12 d0bd 1c86 e7bd 0e00 dbbd 1b35 1c3d
000002e0: ad97 46bd d4b1 933d 0b67 813d 5104 c13d
000002f0: 57d4 adbd 3346 5d3c e894 0cbe 3b2b 37bd
00000300: bebe aabd 4b9e 6dbd cb08 d1bb 817a 85bd
00000310: 00fd 99bc 7837 37bd 3929 fc3d 4d08 80bd
00000320: c075 be3d 85fd 923d ffae 8cbd ea10 20bd
00000330: 801f 0b3e 92cb 983d 1e2d f1bd 6343 08be
00000340: 91fb 063c a306 053e f428 16bd 3c30 c53d
00000350: 930f f2bb ddc2 d6bc 2785 cc3d 22da c33d
00000360: b673 68bd df76 b03d 8dc3 e03d cda7 973c
00000370: 6f19 393c dd2d 28bd dfbd d2bd 3d07 963d
00000380: 3542 cf3d 8e8c 8ebd 3ab3 a83d b7ab dd3d
00000390: 3011 bf3c cb47 5c3c 8fb1 7ebd 3828 fcbd
000003a0: 651f c7bd 5409 903d f4a6 893c 18a3 2cba
000003b0: 916c 8cbd 4223 9d3d 69c1 d93d 5ccb 5e3c
000003c0: f36f b7bc 955e 01be 4cc0 edbd 5141 8f3d
000003d0: feb0 07be f0ea 50bd 190e 453d 5b31 a3bd
000003e0: e5f4 e03d aaf0 64bc f3f6 3dbb f749 963d
000003f0: 6da1 e83d 759f b2bb 7d93 c03c a1a7 f8bc

bias f4 [128]
0.025022356 -0.07752721 -0.09328288 -0.06425698 0.124719664 -0.1027274 -0.0031298944 -0.06237913
0.02212755 0.03327633 -0.1126743 0.08376961 -0.08280007 -0.075099505 -0.06804698 -0.031944163
-0.020506425 -0.08490075 -0.10793037 0.097044006 0.06258903 -0.013381446 0.11645427 -0.114346355
-0.0037025062 -0.114334375 0.05463077 -0.11599533 0.054730136 0.038770013 0.12015139 0.073091485
-0.08835712 0.1292375 -0.10392922 0.088667616 0.0038143238 -0.050908186 -0.05306769 -0.1147512
0.041491523 -0.061255135 -0.017079072 0.0009684997 0.08946772 0.03331003 -0.055819463 -0.102168515
0.09113607 0.082054995 0.07128272 0.0030148611 0.051566217 -0.037150994 -0.10637115 -0.080773026
0.014799814 0.1177455 0.020417243 -0.11138749 0.10172757 0.06551134 0.011725628 -0.007837791
-0.00033620992 -0.044609807 0.055027273 -0.08345516 -0.10686402 0.031755365 -0.11422564 0.00027645592
0.096654214 0.08634588 -0.017723264 -0.009233343 0.031128757 0.021636987 0.078533195 -0.11306721
0.11189735 0.031362906 -0.050392654 -0.07874601 -0.087897874 0.114525825 -0.04330593 0.036904313
0.11417221 -0.005442531 -0.06595643 -0.09156038 -0.06704546 0.042325824 -0.020108517 0.062089562
-0.018900976 -0.110391475 -0.03757839 0.09676239 -0.06097766 -0.08213739 0.008927508 0.117995106
-0.10046232 -0.0035548923 0.10452682 0.04877642 0.023696035 0.026868148 -0.05758611 0.06067178
-0.081385285 0.023206806 -0.07925695 0.034461014 0.10940444 0.0270713 0.041101135 0.0034202652
-0.03738537 0.012509218 0.011007713 -0.03722647 0.11225588 0.07687118 0.09952843 0.015692895
00000000: affb cc3c 96c6 9ebd 180b bfbd 2a99 83bd
00000010: 066d ff3d be62 d2bd ea1e 4dbb 4281 7fbd
00000020: d644 b53c c34c 083d c9c1 e6bd 678f ab3d
00000030: 1593 a9bd c5cd 99bd 375c 8bbd e2d7 02bd
00000040: 17fd a7bc 72e0 adbd 990a ddbd 02bf c63d
00000050: ad2e 803d da3d 5bbc 947f ee3d 6c2e eabd
00000060: bfa5 72bb 2428 eabd 84c4 5f3d f68e edbd
00000070: b52c 603d 4ecd 1e3d ef11 f63d fdb0 953d
00000080: 94f4 b4bd d656 043e d8d8 d4bd 5e97 b53d
00000090: bcf9 793b 1a85 50bd 825d 59bd ad02 ebbd
000000a0: 04f3 293d aae6 7abd 69e9 8bbc eae2 7d3a
000000b0: da3a b73d 1970 083d f3a2 64bd ba3d d1bd
000000c0: 8ca5 ba3d 730c a83d adfc 913d fa94 453b
000000d0: 1937 533d a42b 18bd 1ed9 d9bd 546c a5bd
000000e0: eb7a 723c 8d24 f13d 1042 a73c 201f e4bd
000000f0: 8b56 d03d cf2a 863d d91c 403c 146a 00bc
00000100: 5545 b0b9 c6b8 36bd 4764 613d 8aea aabd
00000110: 86db dabd ea11 023d 22ef e9bd 49f1 9039
00000120: a5f2 c53d 1cd6 b03d 6130 91bc 7347 17bc
00000130: bc01 ff3c 0d40 b13c 03d6 a03d c88f e7bd
00000140: 702a e53d 6476 003d 8768 4ebd 9745 a1bd
00000150: cd03 b4bd 848c ea3d 8f61 31bd fa28 173d
00000160: 1fd3 e93d 4257 b2bb 2a14 87bd 0284 bbbd
00000170: 214f 89bd d85d 2d3d 9eba a4bc a051 7e3d
00000180: 38d6 9abc ed14 e2bd cceb 19bd 5c2b c63d
00000190: b6c3 79bd a637 a8bd af44 123c 6ba7 f13d
000001a0: 30bf cdbd 32f9 68bb 2812 d63d c9c9 473d
000001b0: 301e c23c 971a dc3c 6adf 6bbd f982 783d
000001c0: 54ad a6bd 331c be3c 7851 a2bd fe26 0d3d
000001d0: 6f0f e03d a2c4 dd3c aa59 283d 8726 603b
000001e0: 6721 19bd 77f3 4c3c b259 343c c87a 18bd
000001f0: 69e6 e53d a36e 9d3d 90d5 cb3d 638e 803c

weight f4 [64, 128]
-0.010011838 -0.027619665 -0.059094112 -0.011263245 -0.03676963 0.08444966 -0.062356807 0.017976291
-0.0048052603 0.031718165 -0.029127764 -0.07165684 -0.022218222 0.04013785 0.06580094 -0.092862315
0.07102247 0.0007596727 0.009527547 0.011603945 0.03412835 0.02153606 0.07522074 0.0044491375
0.016686643 -0.022184493 -0.07429258 0.05957927 0.022560107 0.07301491 -0.04442458 -0.011038966
0.10969267 0.02811813 0.029347962 0.0478445 -0.013275347 0.03582491 0.0223418 -0.050050903
-0.10181124 0.05220481 -0.09926728 0.03733056 0.029327359 0.035784267 0.069224074 -0.07409071
-0.014448316 0.091618486 0.06514736 -0.061684545 -0.030750731 -0.029027063 -0.044044334 0.1457052
-0.033428945 0.12648588 -0.09814336 0.04395728 -0.02700442 0.052723408 0.049969587 -0.07402463
0.02538471 -0.0036861089 0.025429195 0.09034302 -0.038083117 0.0074355463 -0.039235596 -0.10719004
0.022355944 -0.06881306 -0.05795063 0.02842084 0.052953757 -0.06061507 0.012911101 -0.0075785816
0.047341187 -0.02810236 0.03799547 -0.054619312 0.07554866 -0.06693252 -0.054136753 0.055423122
0.06211516 -0.05492084 -0.018625364 -0.034274254 0.03512038 -0.06908874 -0.07471356 0.0054725953
0.053598758 -0.095733374 0.0125702415 -0.08525769 -0.011184287 -0.020858146 0.017857334 0.06719495
0.11865899 -0.047539048 0.007115791 -0.014562659 -0.04919554 -0.025314018 -0.061109014 0.01790634
-0.04823948 -0.02981517 0.028947782 0.019981017 0.0601279 -0.016132943 0.04443369 -0.040395882
0.029378604 0.07713019 0.036506698 -0.026865851 0.0034232778 -0.0032102629 -0.0860755 0.08633711
0.08685414 -0.0209511 -0.011123831 0.0724 0.037559625 -0.093808234 -0.01909573 0.053890485
0.014300439 0.020719938 0.054636113 0.10351529 0.10814763 0.097714186 0.000465997 0.03476332
-0.10105483 0.01888056 0.06979652 -0.016502187 0.02800898 0.03174945 0.049155895 -0.0006534565
0.00014952933 -0.06715397 0.035796758 0.07025785 0.04181817 0.08120434 0.05548421 -0.06564452
-0.07917786 0.0007046656 0.074206896 -0.014189804 -0.03211708 0.088487834 -0.033165477 0.03204859
0.0512809 -0.014868143 0.025609927 0.02776398 -0.08544452 -0.062669516 0.040055882 -0.02194836
0.02039467 0.005085356 -0.061807934 -0.0023158458 -0.02869732 -0.018743223 -0.039310582 0.013321173
0.088199064 -0.18877918 0.0030733577 -0.008771407 -0.021950701 0.046589408 0.05505992 -0.0056375316
-0.09890115 -0.06260506 -0.046059854 -0.05690709 0.0015646769 0.09040451 -0.111180186 0.10413393
-0.00585964 -0.020221485 -0.016074512 -0.038225815 -0.109499216 -0.0002544661 -0.034827307 -0.03841606
-0.005011538 0.039421316 0.050696354 0.08191334 -0.045575548 0.07152229 -0.04761779 -0.028109113
-0.028817704 -0.000813004 0.007221396 -0.052759092 0.062466636 0.015829545 -0.07632306 0.05770531
0.07041325 0.085857786 -0.060526036 -0.029556606 -0.033165097 0.104898326 -0.08640923 -0.05801314
-0.09486725 -0.081880495 -0.025213305 -0.04314254 0.017901491 -0.037672415 -0.06808645 0.00091990066
0.05692455 0.043501057 -0.04876355 0.053969633 -0.07167381 -0.011123169 0.12110105 0.09822217
0.081136055 -0.084009804 0.008057027 0.024952266 -0.040747076 0.04227045 -0.03376852 -0.06638121
00000000: b108 24bc a342 e2bc ab0c 72bd 7989 38bc
00000010: c09b 16bd f1f3 ac3d da69 7fbd 0443 933c
00000020: 7275 9dbb e8ea 013d 599d eebc d2c0 92bd
00000030: fd02 b6bc 9667 243d a5c2 863d 992e bebd
00000040: 3b74 913d c624 473a 6e19 1c3c 791e 3e3c
00000050: 2bca 0b3d 646c b03c 550d 9a3d 12ca 913b
00000060: 6db2 883c 41bc b5bc b526 98bd 6509 743d
00000070: f9cf b83c d788 953d 8cf6 35bd c7dc 34bc
00000080: 8da6 e03d fe57 e63c 236b f03c 98f8 433d
00000090: d780 59bc 24bd 123d 2706 b73c 2d02 4dbd
000000a0: 6982 d0bd b6d4 553d a54c cbbd eee7 183d
000000b0: ee3f f03c 8692 123d 5ac5 8d3d dfbc 97bd
000000c0: a1b8 6cbc 79a2 bb3d fb6b 853d efa8 7cbd
000000d0: f5e8 fbbc 2aca edbc d567 34bd be33 153e
000000e0: caec 08bd 8485 013e 63ff c8bd 8d0c 343d
000000f0: 6038 ddbc 80f4 573d e9ac 4c3d 3a9a 97bd
00000100: 98f3 cf3c a592 71bb e350 d03c c305 b93d
00000110: 0bfd 1bbd e2a5 f33b 81b5 20bd 7486 dbbd
00000120: d023 b73c dded 8cbd a45d 6dbd d2d2 e83c
00000130: 0ae6 583d 8247 78bd 1589 533c c055 f8bb
00000140: d5e8 413d ec36 e6bc 23a1 1b3d 80b8 5fbd
00000150: 41b9 9a3d eb13 89bd 80be 5dbd 5b03 633d
00000160: 776c 7e3d adf4 60bd 3894 98bc 2963 0cbd
00000170: 63da 0f3d 667e 8dbd 6c03 99bd 7553 b33b
00000180: 5f8a 5b3d dc0f c4bd 6af3 4d3c 959b aebd
00000190: 4d3e 37bc b4de aabc 8b49 923c 829d 893d
000001a0: 7c03 f33d 4eb8 42bd 952b e93b 3898 6ebc
000001b0: 4381 49bd 585f cfbc 724d 7abd 51b0 923c
000001c0: c396 45bd f23e f4bc e623 ed3c 3baf a33c
000001d0: ac48 763d 3c29 84bc 1a00 363d 2776 25bd
000001e0: 66ab f03c 6ff6 9d3d 0c88 153d c615 dcbc
000001f0: 1259 603b 4663 52bb 5a48 b0bd 83d1 b03d
00000200: 95e0 b13d a4a1 abbc bb40 36bc 7446 943d
00000210: 1fd8 193d 881e c0bd a66e 9cbc 45bc 5c3d
00000220: 634c 6a3c dcbc a93c 1eca 5f3d d3ff d33d
00000230: 817c dd3d 601e c83d 0f51 f439 fc63 0e3d
00000240: d6f5 cebd 67ab 9a3c 7af1 8e3d 982f 87bc
00000250: 1773 e53c b60b 023d b157 493d b94c 2bba
00000260: f9ca 1c39 0588 89bd 9f9f 123d 59e3 8f3d
00000270: 8849 2b3d 764e a63d 6943 633d a270 86bd
00000280: 0028 a2bd 4fb9 383a c9f9 973d 5a7c 68bc
00000290: 338d 03bd 1c39 b53d 86d8 07bd 6245 033d
000002a0: ec0b 523d 8399 73bc e9cb d13c 4971 e33c
000002b0: 89fd aebd e058 80bd a311 243d 0ccd b3bc
000002c0: b912 a73c 0fa3 a63b 512a 7dbd 72c5 17bb
000002d0: a416 ebbc 638b 99bc 2204 21bd 0d41 5a3c
000002e0: b6a1 b43d 544f 41be 636a 493b f3b5 0fbc
000002f0: f5d1 b3bc 89d4 3e3d 8386 613d 0bbb b8bb
00000300: b08c cabd 1537 80bd 42a9 3cbd 6917 69bd
00000310: d815 cd3a 0026 b93d 70b2 e3bd 2b44 d53d
00000320: 3902 c0bb 87a7 a5bc b2ae 83bc ac92 1cbd
00000330: 2041 e0bd dd69 85b9 14a7 0ebd 295a 1dbd
00000340: d437 a4bb 3f78 213d fba6 4f3d 2ec2 a73d
00000350: 6dad 3abd 477a 923d df0a 43bd 1545 e6bc
00000360: 1b13 ecbc c61f 55ba 76a1 ec3b eb19 58bd
00000370: 04dd 7f3d f6ac 813c 444f 9cbd 675c 6c3d
00000380: d234 903d 35d6 af3d 26ea 77bd b220 f2bc
00000390: 20d8 07bd efd4 d63d 53f7 b0bd 309f 6dbd
000003a0: c349 c2bd f6b0 a7bd 228c cebc 3bb6 30bd
000003b0: 26a6 923c 644e 1abd e970 8bbd 7d25 713a
000003c0: b829 693d 2a2e 323d 4abc 47bd 430f 5d3d
000003d0: b8c9 92bd f43d 36bc d403 f83d b428 c93d
000003e0: a92a a63d 550d acbd 9f01 043c b268 cc3c
000003f0: 68e6 26bd c823 2d3d dc50 0abd dff2 87bd

bias f4 [64]
0.068930134 0.033697255 0.037941325 0.0370127 0.042464294 -0.07153541 0.009618306 0.015762977
0.08180077 -0.05194154 0.08398018 0.0715857 0.04386632 -0.09048659 -0.055152576 -0.00035152206
0.08982314 -0.047752645 -0.0871006 -0.085395664 -0.06017339 -0.06609759 0.047786932 0.09192988
0.0233757 -0.052651394 -0.07783397 0.0045556873 0.0043750084 -0.03730435 -0.06311414 0.038508832
0.048272308 -0.06584093 0.053775024 -0.009360939 0.01758754 -0.039121043 -0.03850568 -0.005857104
-0.03954641 0.01758222 -0.059663966 0.017617978 0.03826417 0.073288225 0.04918467 0.058897536
-0.042973608 -0.01681814 0.022725511 0.0443213 -0.04093294 -0.032022443 -0.059018526 0.0019245725
0.07614147 -0.06706086 -0.029669104 -0.005965517 -0.043035936 -0.024954077 0.0062404145 -0.026336847
00000000: 3e2b 8d3d 2206 0a3d 5d68 1b3d a19a 173d
00000010: 0aef 2d3d 2881 92bd 1996 1d3c 5c21 813c
00000020: 2987 a73d a7c0 54bd cdfd ab3d 869b 923d
00000030: 2cad 333d 0951 b9bd abe7 61bd 7e4c b8b9
00000040: 32f5 b73d 4798 43bd cd61 b2bd ece3 aebd
00000050: 5f78 76bd 2c5e 87bd 3bbc 433d bc45 bc3d
00000060: 657e bf3c fda8 57bd 6b67 9fbd e047 953b
00000070: 3b5c 8f3b 72cc 18bd fc41 81bd 70bb 1d3d
00000080: 2fb9 453d 9cd7 86bd 3343 5c3d a05e 19bc
00000090: bf13 903c 633d 20bd 22b8 1dbd f3ec bfbb
000000a0: 6bfb 21bd 9608 903c 3462 74bd 9453 903c
000000b0: e4ba 1c3d 2318 963d dd75 493d 8b3e 713d
000000c0: 1805 30bd 32c6 89bc da2a ba3c 408a 353d
000000d0: 4ca9 27bd f729 03bd 69bd 71bd f041 fc3a
000000e0: 0ff0 9b3d 3457 89bd 9f0c f3bc 627a c3bb
000000f0: 7346 30bd 7e6c ccbc 647c cc3b 5fc0 d7bc

weight f4 [32, 64]
-0.057720285 -0.16756003 -0.10535842 0.01369186 0.09378873 -0.07224978 0.05496559 -0.028888164
0.118848845 0.112973124 0.06981449 -0.073275186 0.13064566 -0.075528696 -0.13275838 0.09818794
0.050115567 -0.07159617 0.020471474 0.03215883 -0.026050532 -0.08535617 -0.05004683 0.10429941
-0.03187195 0.08230942 -0.18097876 -0.026462937 0.012112468 -0.059900094 -0.005306368 0.014922964
-0.1313314 0.117839724 0.0467197 0.044384357 -0.11010324 -0.053399436 -0.04359695 0.0960774
-0.12730502 -0.1314382 0.019274326 -0.18723835 0.08527745 0.07674622 0.011589087 -0.053952605
0.09650496 0.11558538 -0.049552515 -0.092167534 -0.02759823 0.016421592 -0.10363778 0.005811422
-0.02717641 0.05361758 -0.12247377 0.1433214 0.0037974752 -0.0029253252 0.06567418 -0.07583775
0.071382895 -0.051436238 0.09860915 0.101218335 -0.0040111584 -0.031031167 -0.117320046 -0.06581635
0.019290797 0.16637586 -0.13675596 -0.045950994 0.11745186 0.067482285 -0.07841269 -0.035820227
-0.0035191216 -0.03574815 -0.028611273 -0.16365346 -0.041917115 0.009561053 -0.07100646 -0.02732265
-0.1660926 0.040138707 -0.019965613 -0.07205567 -0.011866926 0.07364838 -0.044486184 0.14824331
-0.15634747 0.015850652 -0.10020753 -0.01699822 0.008077684 0.044736706 -0.07811755 -0.031369325
-0.028423501 -0.098163426 -0.01971272 -0.15780234 0.032275237 0.018532658 -0.09545714 0.05795328
0.058937296 0.14760044 0.063934475 -0.11967306 -0.14203544 -0.023817215 0.047009278 0.07176807
0.008168868 0.13712536 -0.092079945 0.14848052 0.11469416 0.006919051 0.05853758 0.046657376
-0.07194136 -0.035114046 -0.06846951 -0.066364616 0.1286145 0.08883966 -0.046414923 -0.18416321
0.02319777 0.09046619 -0.023861654 -0.13355882 0.0362981 -0.09288004 -0.045005884 -0.023805276
0.12244638 -0.0055784895 -0.1617931 -0.19108877 0.009237496 -0.14932707 -0.08071503 0.16291699
-0.04579315 -0.004527652 -0.1813825 0.06521732 -0.13198806 0.12677753 -0.13798818 0.011813497
0.01037605 -0.04148697 0.109773755 -0.063637875 -0.121321246 -0.1283671 -0.101342045 -0.06335938
-0.17650856 -0.038852613 -0.04832256 -0.12428698 -0.07897717 -0.010596172 -0.03654462 0.003204655
-0.06705492 -0.07407499 0.038413666 0.04840694 0.09917785 -0.17231107 -0.04724035 -0.11505513
0.104078904 -0.08388359 0.07777391 0.05202935 -0.066442125 -0.17102493 0.09758563 0.093529195
0.07557765 0.17497168 0.025844384 0.057373393 -0.1216669 -0.107836515 0.055836406 0.02864292
0.03843967 0.051961154 0.10983776 0.040708985 -0.053204786 0.12651171 0.14505355 -0.044098474
-0.059258025 0.09237928 0.12640831 0.031110825 0.0277543 0.14473005 -0.09103837 -0.026964331
-0.050421644 0.062523 0.042520545 -0.03932426 0.08995865 0.032337986 0.13739584 0.084353805
0.12550645 0.03305634 0.0090288045 -0.06497099 -0.036273215 0.1373341 0.13333872 -0.0671137
0.12744237 -0.034181435 -0.054027226 -0.012642632 0.04054777 -0.021348327 0.037520524 -0.14986192
-0.09875178 -0.08787404 0.010358953 0.12551591 -0.08248988 0.09238709 0.024581196 -0.024466047
-0.1708338 -0.0881783 0.08271905 -0.13790058 -0.07248288 -0.018779911 -0.069458984 -0.0013973485
00000000: 1b6c 6cbd db94 2bbe 28c6 d7bd d353 603c
00000010: 4e14 c03d b1f7 93bd 9923 613d dfa6 ecbc
00000020: 0667 f33d 745e e73d e6fa 8e3d 4d11 96bd
00000030: fac7 053e caae 9abd d0f1 07be c216 c93d
00000040: fb45 4d3d 03a1 92bd cbb3 a73c fab8 033d
00000050: ed67 d5bc 37cf aebd e8fd 4cbd ee9a d53d
00000060: 298c 02bd d791 a83d 7f52 39be cdc8 d8bc
00000070: 5f73 463c cd59 75bd 0be1 adbb 737f 743c
00000080: bd7b 06be f455 f13d 285d 3f3d 5fcc 353d
00000090: cf7d e1bd 5eb9 5abd b792 32bd 3ac4 c43d
000000a0: 3f5c 02be bc97 06be 31e5 9d3c 69bb 3fbe
000000b0: f2a5 ae3d 1f2d 9d3d 27e0 3d3c 68fd 5cbd
000000c0: 64a4 c53d 07b8 ec3d 94f7 4abd 55c2 bcbd
000000d0: af15 e2bc 9386 863c 0b40 d4bd be6d be3b
000000e0: 10a1 debc 1c9e 5b3d 87d3 fabd d8c2 123e
000000f0: 10df 783b d0b6 3fbb 2f80 863d d350 9bbd
00000100: 3231 923d ceae 52bd 98f3 c93d 8f4b cf3d
00000110: 0970 83bb 1335 febc 7e45 f0bd b9ca 86bd
00000120: bc07 9e3c 6f5e 2a3e c109 0cbe 1c37 3cbd
00000130: 9a8a f03d 2734 8a3d d596 a0bd 3bb8 12bd
00000140: 10a1 66bb a76c 12bd 3062 eabc c694 27be
00000150: 48b1 2bbd f6a5 1c3c d66b 91bd c0d3 dfbc
00000160: 2e14 2abe 7c68 243d ed8e a3bc ec91 93bd
00000170: 7f6d 42bc f6d4 963d 2537 36bd 18cd 173e
00000180: 8d19 20be 3ad9 813c 9b39 cdbd da3f 8bbc
00000190: 4358 043c d63d 373d 18fc 9fbd 1f7d 00bd
000001a0: 67d8 e8bc e809 c9bd 927c a1bc f096 21be
000001b0: 0a33 043d cdd1 973c 087f c3bd 6b60 6d3d
000001c0: 3c68 713d 9224 173e 14f0 823d 2617 f5bd
000001d0: bd71 11be 521c c3bc cd8c 403d 23fb 923d
000001e0: b7d6 053c 976a 0c3e 6994 bcbd 470b 183e
000001f0: c6e4 ea3d 35b9 e23b 1ac5 6f3d ce1b 3f3d
00000200: fe55 93bd bfd3 0fbd be39 8cbd 2cea 87bd
00000210: 85b3 033e 91f1 b53d 931d 3ebd 4895 3cbe
00000220: 4009 be3c 5646 b93d 8479 c3bc a5c3 08be
00000230: 51ad 143d e437 bebd 1758 38bd 4803 c3bc
00000240: 2bc5 fa3d c3cb b6bb 17ad 25be c6ac 43be
00000250: de58 173c 32e9 18be ec4d a5bd b6d3 263e
00000260: 9991 3bbd b35c 94bb 56bc 39be a990 853d
00000270: e127 07be f8d1 013e c64c 0dbe 668d 413c
00000280: 4f00 2a3c 3eee 29bd 10d1 e03d 9354 82bd
00000290: 4677 f8bd aa72 03be 6b8c cfbd 90c2 81bd
000002a0: a9be 34be eb23 1fbd e0ed 45bd 2c8a febd
000002b0: c8be a1bd 919b 2dbc d0af 15bd 3005 523b
000002c0: 1754 89bd a1b4 97bd a657 1d3d 5b46 463d
000002d0: c21d cb3d 5072 30be 197f 41bd 06a2 ebbd
000002e0: 5227 d53d 29cb abbd ed47 9f3d ba1c 553d
000002f0: cf12 88bd 2921 2fbe fada c73d 3c8c bf3d
00000300: 74c8 9a3d c72b 333e 9ab7 d33c 5d00 6b3d
00000310: 7f2c f9bd 64d9 dcbd b7b4 643d 8fa4 ea3c
00000320: ea72 1d3d 38d5 543d 9ff2 e03d 77be 263d
00000330: 43ed 59bd 498c 013e eb88 143e 9aa0 34bd
00000340: 8bb8 72bd 5931 bd3d 2e71 013e 21dc fe3c
00000350: fc5c e33c 1d34 143e 5372 babd 4de4 dcbc
00000360: ed86 4ebd 0f0c 803d 062a 2e3d 7a12 21bd
00000370: 3e3c b83d d674 043d 7fb1 0c3e b0c1 ac3d
00000380: c384 003e 1666 073d 8ded 133c 830f 85bd
00000390: 3993 14bd 4fa1 0c3e f289 083e e872 89bd
000003a0: 4180 023e d501 0cbd a74b 5dbd 0b23 4fbc
000003b0: 6b15 263d b0e2 aebc 1faf 193d 6775 19be
000003c0: 603e cabd 4ef7 b3bd 99b8 293c 3e87 003e
000003d0: 74f0 a8bd 7135 bd3d 815e c93c 056d c8bc
000003e0: 0eef 2ebe d396 b4bd 9b68 a93d cf35 0dbe
000003f0: e771 94bd 54d8 99bc 8340 8ebd 3c27 b7ba

bias f4 [32]
-0.040344533 0.098082684 0.04140372 0.032657728 -0.08705624 -0.008641323 -0.045660894 0.0011034644
-0.0993504 -0.04990969 0.017338434 -0.009550389 -0.061175037 0.053985424 0.01994011 -0.053013
-0.043772843 -0.027201528 0.024370283 0.08258515 -0.042787943 -0.0046060905 -0.08483599 0.11762729
-0.016837757 -0.049447674 0.059480473 0.10653106 -0.065506846 0.066734396 0.054283045 0.031919777
00000000: 4f40 25bd 93df c83d f296 293d 1cc4 053d
00000010: 8b4a b2bd 5694 0dbc eb06 3bbd 1fa2 903a
00000020: 3978 cbbd 1a6e 4cbd 5509 8e3c 3c79 1cbc
00000030: ad92 7abd d21f 5d3d 7159 a33c 2924 59bd
00000040: 274b 33bd bdd5 debc 30a4 c73c 6722 a93d
00000050: 6942 2fbd b0ee 96bb 7ebe adbd 94e6 f03d
00000060: 56ef 89bc a589 4abd cca1 733d f52c da3d
00000070: 7428 86bd 0bac 883d e657 5e3d 50be 023d

weight f4 [16, 32]
0.06448442 -0.06971077 -0.25319853 0.017556094 0.15849662 0.07803243 0.16687478 -0.007808373
0.07768905 -0.07465327 0.043135356 0.21647967 0.007697398 0.23429522 -0.04474111 0.03396306
0.061269816 0.14959954 -0.18253855 0.09517378 0.015038426 -0.22000374 -0.07001363 0.076073706
0.077701725 -0.022715034 0.06319172 -0.022143973 -0.17300455 0.08620263 -0.065965325 -0.08133186
0.04481966 0.1908898 0.22503476 -0.018366808 -0.09997282 0.03444403 0.032585286 0.15833406
-0.1888484 -0.046901595 -0.013091291 -0.10214479 0.047766402 -0.21483648 0.1950674 -0.06762353
0.018011836 0.076587 0.24982993 0.035916924 0.135063 -0.076977134 -0.08462454 0.18780152
0.1824713 -0.06640165 -0.069387175 0.034367703 -0.0479354 -0.20624425 0.033664677 0.19454156
-0.07141642 -0.12640071 -0.16056643 0.16588634 0.12674001 0.032763336 0.11221407 -0.18719013
-0.021424636 0.022535633 0.023225043 0.1710001 -0.16813558 0.123096064 -0.07348834 -0.025857035
-0.22011623 0.08640186 0.09510863 0.00085228734 0.014225275 -0.2021734 -0.20311712 -0.025429046
-0.050886087 0.1855374 -0.09431596 -0.12692878 0.04492925 0.18821976 -0.22937241 -0.19262977
0.12930511 0.1973583 0.030612966 -0.22313902 -0.09744035 -0.045427065 -0.079251386 0.19301517
-0.13810174 0.16968046 0.18323648 -0.15702777 -0.06654282 0.045939054 -0.0910616 -0.096255556
0.2126466 -0.118038595 -0.08398038 -0.07302735 -0.012854699 0.0011125095 0.048474487 0.050898187
0.21798153 -0.16997525 -0.08691681 0.08258307 0.1084628 0.0012398589 0.13077015 0.10647678
-0.11800284 -0.02535102 0.0966782 0.08774081 0.08964787 0.079999544 0.019807905 0.030727273
-0.064933605 -0.1004946 0.15184675 0.11671293 -0.1520955 0.14255854 -0.096389964 0.13164759
0.10307151 0.10160025 -0.16336028 -0.06592912 -0.24068911 0.058545597 -0.21595609 0.038649827
-0.15653276 0.10514995 0.15304348 -0.10172406 0.018249322 0.1701071 -0.062308464 -0.19131553
0.13452028 -0.10465749 0.22331274 -0.1830706 -0.034864437 -0.124178454 -0.15165687 -0.027299907
-0.22444855 0.19584042 -0.013101588 -0.20501132 0.20488156 -0.22315486 0.20501582 0.107363574
-0.010484791 -0.064567775 0.18188612 -0.047626425 0.24981983 0.14643675 -0.09438512 0.0062717735
-0.041047715 -0.067529775 0.059158284 0.012020229 0.075362556 0.087006055 0.017548222 -0.09302564
-0.017119937 -0.14810425 0.07322556 0.14042407 -0.02306708 0.21173856 0.0047187773 -0.14976034
-0.076422736 -0.09408011 0.10661011 -0.10017369 0.07377328 0.17435949 -0.058560323 -0.035947938
-0.11712308 0.23483981 -0.038935572 0.19743985 -0.20602329 0.030401582 -0.22186935 0.029927105
-0.081487454 0.15729025 0.20699567 0.00947797 -0.008016445 -0.07878193 -0.08903305 -0.0795956
-0.0833306 -0.15060772 -0.1479204 0.027539447 0.03477378 0.18336704 -0.07044022 -0.17555194
0.17191122 -0.18166916 0.09331584 0.19912255 -0.21879189 0.0074867895 -0.035913855 -0.075612426
-0.06258045 0.07719481 -0.05394676 -0.041024707 -0.2513781 -0.15782331 -0.050267294 0.11291848
0.06222128 0.1919939 -0.09809607 0.09054172 -0.16139114 -0.07817588 -0.27239928 -0.20659065
00000000: 6810 843d 85c4 8ebd 3da3 81be ccd1 8f3c
00000010: f04c 223e 77cf 9f3d 39e1 2a3e 61dd ffbb
00000020: 701b 9f3d d0e3 98bd b3ae 303d d9ac 5d3e
00000030: 743a fc3b 16eb 6f3e 7442 37bd d91c 0b3d
00000040: 0ff6 7a3d 9f30 193e 63eb 3abe 79ea c23d
00000050: bb63 763c a948 61be 4e63 8fbd 88cc 9b3d
00000060: 1522 9f3d e114 babc a96a 813d 4767 b5bc
00000070: 1b28 31be 018b b03d d418 87bd 5191 a6bd
00000080: d294 373d 9e78 433e 836f 663e fd75 96bc
00000090: 8dbe ccbd 2f15 0d3d 2678 053d 5322 223e
000000a0: 7a61 41be e31b 40bd db7c 56bc 4a31 d1bd
000000b0: b4a6 433d 18fe 5bbe c0bf 473e 357e 8abd
000000c0: 8f8d 933c a5d9 9c3d 6bd3 7f3e a01d 133d
000000d0: f44d 0a3e 30a6 9dbd a14f adbd 0b4f 403e
000000e0: c2d9 3a3e 97fd 87bd dd1a 8ebd 26c5 0c3d
000000f0: e957 44bd b131 53be f9e3 093d e735 473e
00000100: c642 92bd 306f 01be 876b 24be 1cde 293e
00000110: 22c8 013e d932 063d 7ed0 e53d c5ae 3fbe
00000120: b882 afbc a69c b83c 7242 be3c a61a 2f3e
00000130: bc2b 2cbe ca19 fc3d 0e81 96bd 22d2 d3bc
00000140: 2666 61be 75f3 b03d 50c8 c23d 096c 5f3a
00000150: 2111 693c 8b06 4fbe effd 4fbe 9350 d0bc
00000160: ee6d 50bd 84fd 3d3e ba28 c1bd 9ef9 01be
00000170: bc07 383d aebc 403e 9ae0 6abe bd40 45be
00000180: 8f68 043e 4b18 4a3e 0bc8 fa3c 8e7e 64be
00000190: ce8e c7bd bb11 3abd 8d4e a2bd c5a5 453e
000001a0: 8b6a 0dbe b7c0 2d3e 58a2 3b3e e3cb 20be
000001b0: 9a47 88bd 972a 3c3d 817e babd a221 c5bd
000001c0: 08c0 593e 38be f1bd e8fd abbd 5d8f 95bd
000001d0: 849c 52bc a0d1 913a 2f8d 463d 9e7a 503d
000001e0: 8d36 5f3e fe0d 2ebe 7101 b2bd 5021 a93d
000001f0: bf21 de3d c382 a23a 9ce8 053e 7f10 da3d
00000200: 79ab f1bd f1ac cfbc 38ff c53d 74b1 b33d
00000210: 4d99 b73d cdd6 a33d 3044 a23c c3b7 fb3c
00000220: e9fb 84bd 1dd0 cdbd b77d 1b3e 3007 ef3d
00000230: ecbe 1bbe defa 113e 1a68 c5bd a0ce 063e
00000240: 2817 d33d cb13 d03d eb47 27be d905 87bd
00000250: 3577 76be 82cd 6f3d 9823 5dbe 484f 1e3d
00000260: 204a 20be db58 d73d 6eb7 1c3e b454 d0bd
00000270: 9a7f 953c 8e30 2e3e 2937 7fbd 38e8 43be
00000280: afbf 093e ab56 d6bd 18ac 643e dc76 3bbe
00000290: 03ce 0ebd 4651 febd f04b 1bbe 0ea4 dfbc
000002a0: d7d5 65be 648a 483e 0ba8 56bc 7dee 51be
000002b0: 79cc 513e b582 64be abef 513e 6fe1 db3d
000002c0: 67c8 2bbc 1c3c 84bd 5b40 3a3e ed13 43bd
000002d0: c5d0 7f3e 84f3 153e fc4c c1bd 7383 cd3b
000002e0: a621 28bd 0d4d 8abd f54f 723d 7ff0 443c
000002f0: af57 9a3d 3b30 b23d 4ac1 8f3c 3a84 bebd
00000300: 1c3f 8cbc a4a8 17be 48f7 953d 54cb 0f3e
00000310: 2cf7 bcbc fed1 583e f99f 9a3b c65a 19be
00000320: 8683 9cbd 13ad c0bd 6756 da3d dd27 cdbd
00000330: 7216 973d 4b8b 323e f3dc 6fbd 253e 13bd
00000340: 3ade efbd d979 703e e87a 1fbd ac2d 4a3e
00000350: c5f7 52be bd0c f93c b831 63be b029 f53c
00000360: e5e2 a6bd b210 213e acf6 533e 7d49 1b3c
00000370: 6857 03bc 6c58 a1bd f656 b6bd 0503 a3bd
00000380: 3ca9 aabd e938 1abe 7278 17be 689a e13c
00000390: f36e 0e3d 92c4 3b3e f642 90bd e3c3 33be
000003a0: 7f09 303e 7b07 3abe 601c bf3d c8e6 4b3e
000003b0: fb0a 60be be53 f53b 681a 13bd b0da 9abd
000003c0: 2e2a 80bd 5018 9e3d 47f7 5cbd 8609 28bd
000003d0: a1b4 80be 6f9c 21be 14e5 4dbd ce41 e73d
000003e0: bedb 7e3d 0d9a 443e 98e6 c8bd f06d b93d
000003f0: b843 25be ad1a a0bd eb77 8bbe 808c 53be

bias f4 [16]
0.082684666 -0.0604651 0.15435718 -0.0019867448 -0.08896367 -0.050006278 -0.1286779 0.025958313
-0.104487695 -0.12608309 0.058163617 0.030277237 0.12727298 0.00863008 -0.13436142 -0.06899066
00000000: 9456 a93d 41aa 77bd cf0f 1e3e 0c34 02bb
00000010: 9632 b6bd 62d3 4cbd 24c4 03be 87a6 d43c
00000020: a5fd d5bd ed1b 01be f93c 6e3d f807 f83c
00000030: d953 023e 2e65 0d3c 0a96 09be fa4a 8dbd

weight f4 [1, 16]
0.32816237 -0.34296623 0.3381913 -0.30377033 0.33690068 -0.3365401 0.19015183 0.15161286
0.2178026 -0.16057087 -0.29265913 0.21654497 -0.16052826 0.20600493 -0.268036 0.1813799
00000000: e604 a83e 4599 afbe 6927 ad3e c987 9bbe
00000010: 3f7e ac3e fc4e acbe 29b7 423e 6740 1b3e
00000020: a507 5f3e b16c 24be 6bd7 95be f7bd 5d3e
00000030: 8561 24be f5f2 523e 043c 89be a7bb 393e
