UnsupervisedLinear.pth (torch_old, 95035 bytes, 11 tensors)

weight f4 [64, 32]
00000000: 0fb2 11bd 3c41 073e bcd4 eabd 5d18 febd
00000010: 3c3a a8bc 28fd 12be 7f4f 193d 0b8d 97bb
00000020: 0815 1f3d 512f 543d 617b 833d b613 f63d
00000030: 73b9 e0bd 7047 fa3d 9317 543d 92b4 733d
00000040: 0d0a 6cbd abce ae3d d061 81bd 37b5 cfbd
00000050: 3631 28be 0319 373e f312 e63d f769 11be
00000060: 3948 f73c 540d f03d 567d 083d fecf 65ba
00000070: a83d 053d 30ec f7bd 7113 c2bd d25b 17be
00000080: d545 1bbe 2930 0f3e ff5b 373e b829 88bd
00000090: 6239 ebbc f211 4cbd 465b 2b3e 1135 d0bc
000000a0: 2617 0d3d 5952 3f3e a35e 333e 5638 11be
000000b0: c8da ce3b 29df b739 2654 903c 4421 08be
000000c0: 7c77 2d3e 1645 e6bd 4d45 afbd 1a5d c9bd
000000d0: 9f71 c3bc 7f7f 143e ef71 ec3d 22ea b7bc
000000e0: 00a8 4fbd 3026 863b 3a01 bf3d 033f f1bd
000000f0: ce49 adbd 9ca9 87bc bfdd b93d c007 f2bd
00000100: ceae 0a3d f8a4 2ebe 5245 cfba 2062 3ebd
00000110: a188 563d 30fb eebd 067a babc 7794 99bd
00000120: d4cc e43d 65cb 283d fa11 013c aacd 30be
00000130: 9990 3bbe b72d 40bd 6291 1b3e 3fd7 33be
00000140: af9e a03d 3a2c d33b 8328 1dbe e112 863d
00000150: 153b 2cbe 42d4 edbc 3a0a 343d 05c5 af3d
00000160: 3eed 01bd 2a34 4d3c 5e3f 23be a9ee 41be
00000170: 277d 9b3d 67eb 58bd f217 41bd 7155 dbbd
00000180: 8eb2 97bc d9bd ccbd a81d 19bd 0d32 26bd
00000190: 1654 353d 642b 3b3e af03 313a 5f0e 00be
000001a0: a851 86bc 76ab 323e 673a b5bd cd3d 333e
000001b0: 3144 2c3d 97d3 e83d ede9 893d b046 c0bd
000001c0: 9318 8bbd c535 533e 8f11 e6bd 9de7 37bc
000001d0: 84df 173e 29a7 4f3e 3093 19bd 9ab2 5d3e
000001e0: 781a 983d ab45 d23d f7be 033e 1712 ca3d
000001f0: e9ee efbd 6147 acbd fba2 403e b3e2 483e
00000200: c3c5 a3be 04fd 76be 7c56 08be 750a c9bd
00000210: 49f0 c83b 274c 963d 560a 523e fc2a 393d
00000220: d317 e9bd c2a7 c3bc e7ae bebc 3288 01be
00000230: 7855 b83c 0265 ac3d 463a 013e 521b e83c
00000240: f1f9 093d 2c0e 243e 6680 b33b bb95 39bd
00000250: 4c73 483d 7171 403e 1018 353d f00a 053e
00000260: 1d09 3bbd ca19 f9bd 01fe 0e3c 9ec0 13be
00000270: 511a da3d c899 ce3d d289 f43d 53c4 6ebd
00000280: 1534 403e 45a6 31bd 3ea4 5e3d eed6 133d
00000290: 6b6e c83d 5e60 313e 9c15 b83d 2b97 1b3e
000002a0: 2ca0 1f3e efb5 04be e590 fe3c 596b e8bd
000002b0: b9fa 673d 0a95 08be 6ad4 a83d 13a0 1e3e
000002c0: 4b53 94bd 768c 923d 7fa8 3c3e a782 4c3e
000002d0: 9bf1 c6bd a82d e53d a620 1ebd eb10 d2bc
000002e0: c8fb bd3b d734 1c3e 4c6a 163e 29a1 2f3e
000002f0: cb15 1ebd 12cf 133d 7aea 04bc 94cd 72bd
00000300: 0ba8 87bd cd6b 193e 4172 debd bc64 b03d
00000310: 2162 34be be8f b5bd 0147 f2bd aba4 173e
00000320: edc9 acbd 47c2 e53d 4c7c e13d b7bf ffbd
00000330: b6fb fc3d ff6b 103e 9844 27be 6bde 0fbe
00000340: 63ac 1fbd 80dd 1cbe cc93 d83d befb db3d
00000350: 66ed 5a3d b875 7bbd 84b5 343e 636f 7e3d
00000360: a91d 11bd 1ef4 41bd 34c8 38bd 47b1 b4bd
00000370: 12d5 af3d ef77 193e df61 04bc 4127 d0bd
00000380: e8bb 11bd 6b5a e5bd 1489 d9bc b9eb 0b3e
00000390: 119b 1b3e e23f 12be f33f 253e 8f88 243e
000003a0: f996 343e d496 1e3b 8128 803d b495 433d
000003b0: 6304 92bd b75c 973c dcbe 1b3d 9794 a2bd
000003c0: 13ea fe3d ab43 0a3e 2159 a13d 863c c23d
000003d0: b04e 27bd 1f66 8fbc 298e 2b3e 5fb8 f13c
000003e0: a370 e53a 4512 803c cadc 4a3e 38e7 623d
000003f0: 5d8d 67bc d81b 803d f885 1e3e 32b6 1f3e
-0.0355702 0.13208479 -0.11466357 -0.12406991 -0.02053558 -0.14354384 0.03742933 -0.004624968
0.038838416 0.051802937 0.06420017 0.12015478 -0.10972872 0.12220657 0.051780295 0.059498377
-0.057626773 0.085355125 -0.063174844 -0.10141986 -0.16425022 0.17880635 0.11234083 -0.14200579
0.030185806 0.11721292 0.033322655 -0.000876665 0.032529503 -0.12105596 -0.094763644 -0.1478112
-0.15163358 0.13983215 0.17906187 -0.06648582 -0.028713886 -0.0498218 0.16734037 -0.025415929
0.034445904 0.18683757 0.1751657 -0.14181647 0.006312702 0.00035070747 0.01761825 -0.1329394
0.16940111 -0.11243646 -0.0855814 -0.09832211 -0.02385789 0.14501761 0.115451686 -0.02245051
-0.050697327 0.004093908 0.09326406 -0.11779597 -0.08461343 -0.016560368 0.09075498 -0.118178844
0.033858113 -0.17055118 -0.0015813506 -0.046480298 0.052376393 -0.11669004 -0.022763263 -0.074990205
0.1117188 0.041209597 0.007877821 -0.17265955 -0.18316878 -0.046918597 0.15192178 -0.17562579
0.078427665 0.006444481 -0.15347485 0.065465696 -0.16819413 -0.029031876 0.043955065 0.085825
-0.031720392 0.012524644 -0.15942141 -0.18938698 0.0759223 -0.052958872 -0.047141977 -0.10709656
-0.018517759 -0.09997148 -0.037381798 -0.040575076 0.044269644 0.18278271 0.0006752563 -0.12505482
-0.016396359 0.1744822 -0.0884903 0.17504044 0.04205722 0.113684826 0.06734071 -0.093884826
-0.067917965 0.2062598 -0.11233818 -0.0112246545 0.14831358 0.2027861 -0.037493885 0.21650162
0.074269235 0.10267194 0.12865816 0.098667316 -0.1171549 -0.08412052 0.18812172 0.19617729
-0.31986818 -0.24119955 -0.13314241 -0.09816448 0.00613216 0.07338744 0.20511755 0.04520701
-0.11381497 -0.023883704 -0.02327676 -0.1264961 0.022501692 0.08417703 0.12619886 0.02833334
0.03368563 0.16021031 0.005477953 -0.04530881 0.04893808 0.18793274 0.0442124 0.12992454
-0.045662988 -0.12163122 0.008727551 -0.14428946 0.10649551 0.10087925 0.1194035 -0.058292698
0.18769868 -0.043371458 0.054355852 0.036093645 0.097866856 0.17321917 0.08988497 0.15194385
0.15588444 -0.12960027 0.03107495 -0.113486 0.056635592 -0.13338104 0.0824364 0.15490751
-0.072424494 0.07155697 0.18423651 0.19971715 -0.09714051 0.11190349 -0.038605355 -0.025642833
0.005797837 0.15254532 0.14688987 0.17151321 -0.038595002 0.03608615 -0.008112544 -0.059278086
-0.066238485 0.14982529 -0.10861636 0.086129636 -0.17615558 -0.08865307 -0.11829949 0.1480891
-0.08436952 0.11218696 0.11010036 -0.124877386 0.123526976 0.14103697 -0.1633476 -0.1404969
-0.03898276 -0.1531887 0.10575065 0.107413754 0.053449057 -0.061391562 0.17647368 0.062117945
-0.035428677 -0.04735195 -0.045112804 -0.088228755 0.08585562 0.14987157 -0.008079975 -0.10163737
-0.035579592 -0.111988865 -0.026554622 0.1366414 0.15195872 -0.14282182 0.16137676 0.16067718
0.17635716 0.0024198787 0.062577255 0.04775019 -0.07129743 0.018476827 0.038023815 -0.079384975
0.1244699 0.13502376 0.07878328 0.094842 -0.040846527 -0.01750475 0.16753449 0.02950686
0.0017504882 0.015633712 0.19810787 0.05539629 -0.014132825 0.06255311 0.15480793 0.15596846

bias f4 [64]
00000000: 7c9e 3cbd 9a7f c6bd 436e f9bd b3bd 093e
00000010: bea3 8bbd 860a 033e 8e6f 6abe 91bc d73c
00000020: 18a0 15bd 063f f5bc 9931 98bd cc48 73bc
00000030: 6514 8b3d baa6 9d3c 2641 e6bb 6aa8 a73d
00000040: 288f 503d 2b46 373e 4d56 263e 4e41 2cbe
00000050: 91f0 91be 0f49 01be e6ec cebd 0e3d 1fbe
00000060: 9300 163c d42e d73d 7d8e 8f3c 989e 063d
00000070: 0c59 adbd 5b26 6d3d 22cf b0bd 4cce d3bd
00000080: 391a 413d d649 893d f4d6 cb3d 2486 0abe
00000090: 1602 82bb 5342 afbd ff9a 09be 0f88 753d
000000a0: dab4 67be 9b31 5abe 693c 19be ddb7 50bc
000000b0: 75cb 16be f727 053e e061 e23d 0e43 3cbe
000000c0: e571 643e 57d4 cfbd 5bea f13d 9a0a 983c
000000d0: e9d5 f23d f7e4 463d 6d78 20be b5f9 1c3e
000000e0: 5a17 d5bc 3423 fb3c 3ca0 02be 3c80 70be
000000f0: 0c9c 8cbd 58b5 2bbc c463 16be bfac 763e
-0.04604958 -0.09692307 -0.12179234 0.13451271 -0.06818341 0.12796983 -0.22894117 0.026335033
-0.03652963 -0.029937278 -0.07431335 -0.014848899 0.06790999 0.01924454 -0.0070268093 0.08186419
0.050917774 0.1789786 0.16243859 -0.16821787 -0.2850385 -0.12625526 -0.101037785 -0.15550634
0.00915541 0.10506979 0.017523998 0.03286609 -0.0846425 0.057897907 -0.086332574 -0.103420824
0.04714415 0.06703536 0.099531084 -0.13527733 -0.003967534 -0.08557572 -0.13438033 0.05994421
-0.22627583 -0.21307985 -0.14964451 -0.012739149 -0.1472605 0.13003527 0.110538244 -0.18384954
0.22309072 -0.101479225 0.11812278 0.018559743 0.118572064 0.0485582 -0.15670939 0.1532963
-0.026012111 0.030656435 -0.12756437 -0.23486418 -0.06865701 -0.010480247 -0.14686495 0.24089335

weight f4 [128, 64]
00000000: 8328 b2bd aea7 37bc 33f6 fb3d e4c2 763d
00000010: 0a50 dbba 7286 4bbd c457 c3bd 03cf 503d
00000020: af48 963d c778 913d f248 0cbe 5f17 2d3e
00000030: 1f4d 843d f7c6 b2bd 1eec 573d e50c 143e
00000040: 2ead c3bd 0bee 2ebb d1e8 afbc a6c0 e2ba
00000050: a9b5 853e cbd2 393e 505b 13bd d1f1 a0bd
00000060: 1b50 c03d 6247 343e 93d1 a83d 506f 04be
00000070: 1291 05bd ba89 1dbc da55 1ebe 50aa 62be
00000080: 6030 023d 1f91 e0bd b1cc 9a3d c887 23bd
00000090: dbcf 2d3c 52c6 0fbd 6538 d03d 74ff 883c
000000a0: 7a74 843c f7bd 843c b1b3 993c 7b41 293e
000000b0: e3d8 013d a10c 5fbe 50db 94bb 6c10 ae3d
000000c0: ad77 f3bc 09bd 1bbd 9597 e8bd bdf7 84bd
000000d0: e407 bfbb 4a40 40bd 6cb8 383d 5604 1a3e
000000e0: cd63 f13d df8b c2bd e15b c8bd a7bd 453e
000000f0: e430 43bd 9585 10be b866 6a3d d4f5 a93e
00000100: c8eb e23c c4df c9bc 9ab0 babc d034 bfbd
00000110: 72d8 f9bd 8608 58bd f23c 8e3d 9069 783c
00000120: 855f b63d 6657 103e d299 293d f051 fdbd
00000130: 7ce0 b93d f26f f4bc a233 d3bd 54a7 38be
00000140: bde1 17be cd79 e7bd 002a 9d3d e89e d93d
00000150: be0a 1c3e a4ca 9e3d 62bc 32bd 3cbf 2f3d
00000160: 9c01 913d 7fee 96bd ab34 01bd 5a6c 033d
00000170: 15e8 d1bc b49c c73d 8038 023e 1609 51bc
00000180: aad5 a43d b0c3 9ebd 1e66 14bd 2eee ca3c
00000190: 74c7 15be da83 a6bd da55 55bd 8152 20bc
000001a0: 4e17 07bc 595e fbbc 36be 1b3e 58c3 e5bc
000001b0: 98de d9bd 6f1e e6bb 341b a9bd 2f9a c43d
000001c0: 34a2 b5bd 595c 873d 3ab3 b6bd 606f 2fbd
000001d0: 06d5 c5bd 4c4a 253d 034e b93d 1343 3bbd
000001e0: c43d 353d 8c62 af3d 645c 91bc fade 083e
000001f0: 36fe a33d 4f05 ee3d 5b10 fe3d 3c42 a6bd
00000200: 1a4e 9c3d 3994 943c 3452 55bd 07a1 8dbd
00000210: 73f5 c1bd efba 98bd 3f06 653d 5794 473d
00000220: 928f 943d 3f61 803d 876a fe3d 8488 97bd
00000230: 8016 323d b19c 813d bace 06be 2530 04be
00000240: aae6 babc f877 00be c313 b53d 5ed2 de3c
00000250: 2084 033e 8c24 d73d 194f 9e3d f76b edbb
00000260: 8349 0fbd 16ad afbd d4ec 86bd b2f8 8ebc
00000270: ab46 20bd 9505 bebd e132 0fbd 3665 b6bc
00000280: c281 053e 43d9 12bd 71ea a53d 79f4 eb3d
00000290: 4c1b 68bd 6d8c 87bd 6b32 da3d a5a3 b3bd
000002a0: b91e ac3c 1d9b 203d 3c36 c63d c307 bfbd
000002b0: 1c36 fa3c 954b edbd 8400 06be b6eb 1b3c
000002c0: 9fe9 ea3d 2330 e83d 0dcd 763c fd7d 943d
000002d0: 1a23 02bd fd0b 83bd 585d b5bd 0cb2 593a
000002e0: 112f c6bd 6225 1e3d 5101 023e 6de1 263e
000002f0: be1e d53c e9c8 25bc 323b a23d bbd1 a0bd
00000300: 1748 a0bc 06e8 c7bc ddb3 903d 08f2 1dbd
00000310: 90a3 8b3d d4d1 493d 36e7 80bd 552b cebd
00000320: b107 5bbd 1438 273e ee47 0b3e ec6f ae3b
00000330: 0586 ecbc 5d06 d43d 8e53 103d d051 d1bd
00000340: a290 aa3b cf44 463d c3ce b6bc a7aa 0bbb
00000350: 40d6 15bd b772 ee3c 843d 583c 0323 ed3d
00000360: ead9 82bc df6a a23d 8a23 f53d cabc e0bd
00000370: 6413 9a3d 4cfd 2f3d c61d be3d a6cb 023e
00000380: 8ffd d1bd 3802 41bd 5025 32bd 968f ebbc
00000390: 45e9 84bd 045d 56bd a7dd 93bd b9ac 54bd
000003a0: 20cf d5bd ea9e c53d 2a58 573d b65d 153e
000003b0: 66f9 2ebc 4f8d 683c b2fa aa3d 6f20 30bd
000003c0: a260 9cbd 70a5 1e3e c126 803d 79b8 c9bd
000003d0: 0063 163d a093 303d d5e5 063d 4b0e 8b3d
000003e0: 812a a43d 6f3a 77bb bfed bb3d a849 37bd
000003f0: 0031 2fbd 4b52 8a3c f4de 173c 0796 93bd
-0.08699133 -0.011209412 0.12302818 0.060244456 -0.0016732228 -0.049688764 -0.09538224 0.05097867
0.07338082 0.071031146 -0.13699701 0.16903447 0.06460022 -0.08729356 0.052715413 0.14458044
-0.09554516 -0.0026692178 -0.02147332 -0.0017299845 0.26115158 0.18146817 -0.035975754 -0.07858623
0.09390279 0.17605355 0.08243098 -0.12933087 -0.032609053 -0.009615356 -0.15462437 -0.22135282
0.031784415 -0.1096518 0.07558573 -0.039924413 0.010608639 -0.035101242 0.101670064 0.016723372
0.016168822 0.016203864 0.018762441 0.16528885 0.03170098 -0.21782161 -0.0045427456 0.08499226
-0.029720152 -0.038022075 -0.11357037 -0.06492565 -0.005829798 -0.04693631 0.045097753 0.15040717
0.117866136 -0.094993345 -0.097831495 0.19310628 -0.047654048 -0.14113458 0.057226866 0.33195364
0.02770032 -0.024642833 -0.022789288 -0.09336245 -0.12199487 -0.052742504 0.06945218 0.015161887
0.08904938 0.1409584 0.04140646 -0.12369144 0.0907602 -0.029838536 -0.103125826 -0.1803258
-0.14832206 -0.113025285 0.076740265 0.10626012 0.15238473 0.077534944 -0.043636687 0.042906985
0.07080385 -0.07369708 -0.03154437 0.032085754 -0.02562336 0.097466856 0.12716866 -0.012758514
0.08048566 -0.07752168 -0.0362302 0.024771776 -0.14626867 -0.081306174 -0.052083828 -0.009785295
-0.008245302 -0.030684637 0.15209278 -0.028047249 -0.106381595 -0.007022671 -0.08257142 0.09599721
-0.088688284 0.06609411 -0.089209035 -0.042830825 -0.096597716 0.04035406 0.09048083 -0.045718264
0.044248357 0.08563718 -0.01774425 0.13366309 0.08007471 0.11622106 0.12405463 -0.08118102
0.07632084 0.018137084 -0.052080348 -0.06915479 -0.09470644 -0.0745753 0.05591416 0.048725452
0.07253946 0.06268548 0.12422662 -0.07399085 0.04347849 0.06328715 -0.13164797 -0.1290899
-0.022815067 -0.12545764 0.0884166 0.02719992 0.1284337 0.10505018 0.077299304 -0.0072455364
-0.034982216 -0.085779354 -0.0658814 -0.017452572 -0.039129894 -0.092784084 -0.03496063 -0.022265058
0.1303778 -0.03585173 0.08101357 0.11521239 -0.056666657 -0.06618581 0.10654148 -0.08771447
0.021010743 0.039210428 0.09678313 -0.09327652 0.03054338 -0.11586682 -0.13086134 0.009516647
0.11470341 0.11337306 0.015063536 0.07250593 -0.031771757 -0.06398771 -0.088556945 0.0008304424
-0.09676946 0.03860987 0.12695815 0.1629693 0.026015636 -0.0101187015 0.07921447 -0.07852503
-0.019565625 -0.02440263 0.07065556 -0.038560897 0.068183064 0.049272373 -0.062941 -0.10066859
-0.053474132 0.16329986 0.13601658 0.0053234007 -0.0288725 0.10352776 0.035235934 -0.102206826
0.00520523 0.048405465 -0.022315389 -0.0021311434 -0.036581278 0.029107435 0.01319826 0.115789436
-0.01597305 0.0793054 0.11969669 -0.10973509 0.0752323 0.042966172 0.092830226 0.12772998
-0.102534406 -0.047121257 -0.043492615 -0.02875499 -0.06489805 -0.0523348 -0.07220011 -0.051922534
-0.104398966 0.09649451 0.052574314 0.14586529 -0.010679578 0.014193847 0.083485976 -0.04299968
-0.07635619 0.15492797 0.06257392 -0.098496385 0.036715508 0.043109536 0.03293403 0.067898355
0.080159195 -0.0037724038 0.09176206 -0.04474798 -0.04277134 0.016884943 0.009269465 -0.0720635

bias f4 [128]
00000000: 535b 4d3d d78c 6c3d b1bd eabd 4397 debd
00000010: ac54 c1bb 9c0a ccbd 6938 c03d 4eab 75bd
00000020: 20dd 98bd d06d 50bd c8d5 15bd 44e1 d03d
00000030: 7c0c 99bc d169 993d 0d33 3cbd 4e77 0dbc
00000040: b52a e5bd a101 fcbd fec0 b4bc 850e 823d
00000050: 7874 f5bd 18b7 eb3d 7948 6dbc 02d4 adbc
00000060: 661f d3bd 188e a7bd 9a7a fa3b 33de 5a3d
00000070: 5bb1 043d a62b 9ebb 768a abbd 21b3 bebd
00000080: 0880 0a3d 54c9 3dbc 45dc 43bd 73cd 843d
00000090: e195 10bd 73d9 453d bb7b f23d 7e8b 0c3b
000000a0: c72c f0bd e834 ffbb 2371 953d 16a5 6dbd
000000b0: fbb8 5bbd 12ef a2bc 2e15 a93d e699 bdbd
000000c0: 6d27 aa3d 4324 d83b 2c85 bc3d fd82 b6bd
000000d0: 7280 97bd 649c 503c 6c9a f3bd 64ff 2fbd
000000e0: 9e4a e03d 6a48 af3d d9c0 053e 9786 473c
000000f0: de77 b23d b1bf 143d e68e f0bc 7888 f8bc
00000100: 9185 d7bd 93b1 d6bd cc43 babc e609 8fbd
00000110: 745d 7cbd 0406 69bd 31b9 68bd f2f0 d0bd
00000120: a1d5 02be f090 63bb e97d 6cbd 0b37 353c
00000130: f281 a2bb c1cd f63d 43ca 9a3d 9765 64bd
00000140: 4660 b3bd 2443 dd3b 58a7 adbd 4494 d2bd
00000150: 2193 e13d a319 0c3e 1668 dd3c 063d 733d
00000160: 9d9f 593c 327b 6b3d efdb b73d b15e 8a3d
00000170: 605b a1bd 85ed 893d c10c b4bd f548 f2bc
00000180: 3242 853d 6605 b9bd 8dfb e43d c652 a5bd
00000190: aeb6 08bd 03b5 79bd fb9e e7bd 8c23 aebd
000001a0: d227 81bc c33a aebc 4f89 0f3d e865 18bd
000001b0: 606d b9bb adf7 3a3d 87d3 d4bd b54c ebbd
000001c0: f8f7 4b3d fc4a e9bd fa26 e53d 5374 22bd
000001d0: 4516 f43d 11e9 ddbc 3ca9 3cbc 171e 763c
000001e0: f087 2bbc 62e5 373d adee 053c d438 573d
000001f0: 1267 28bd 196b e93d 17f3 613d e36a acbd
0.05013592 0.057751503 -0.11461962 -0.10868695 -0.0058999863 -0.09962961 0.093857594 -0.059977822
-0.07464051 -0.050885975 -0.03658083 0.10199216 -0.01868271 0.07490886 -0.045947123 -0.0086344015
-0.11189786 -0.12304998 -0.022064682 0.06350426 -0.11985105 0.11509532 -0.014482611 -0.021219257
-0.10308723 -0.08181399 0.00764401 0.053434562 0.0323957 -0.0048269806 -0.08376019 -0.0931151
0.033813506 -0.011583645 -0.047817487 0.06484499 -0.035299186 0.04830308 0.11840006 0.0021445449
-0.117272906 -0.0077882893 0.0729697 -0.058018766 -0.053643208 -0.019889388 0.08255993 -0.092578694
0.08308301 0.0065961196 0.09205088 -0.08911703 -0.07397546 0.012732599 -0.11894688 -0.04296817
0.10951732 0.08558734 0.13061847 0.012178085 0.08714269 0.036315624 -0.029365014 -0.03033851
-0.10523523 -0.10483088 -0.022737406 -0.0698431 -0.06161256 -0.056890503 -0.056817237 -0.10202207
-0.12776805 -0.003472384 -0.057737265 0.011060487 -0.0049593383 0.12050963 0.075581096 -0.055760946
-0.08758597 0.0067523886 -0.08479184 -0.10282186 0.11014391 0.13681655 0.027027171 0.05938437
0.013282684 0.057490535 0.08977496 0.06756342 -0.078787565 0.067347564 -0.08791495 -0.029575804
0.065067664 -0.09034233 0.11180792 -0.080724284 -0.033377342 -0.06096364 -0.1130962 -0.08502874
-0.015766058 -0.021268254 0.035043057 -0.03720656 -0.0056587905 0.04564636 -0.10391908 -0.1148924
0.04979703 -0.11391255 0.11189075 -0.039661717 0.1191831 -0.027088674 -0.011514958 0.015021822
-0.010469422 0.04489649 0.0081745805 0.05254443 -0.04111392 0.113973804 0.05516347 -0.084188245

weight f4 [64, 128]
00000000: 7e19 2ebd c309 9dbe 6803 a63c d271 3dbe
00000010: 02e5 6a3e 19f7 153d a893 9dbc d79e 22be
00000020: 5394 ca3d 5358 463e 8ded c43c 3735 aebd
00000030: fd30 c53c b472 103d c3bf b93c 0a8d 48bd
00000040: f9d0 073e 63e0 e23d a611 10bd c4f4 5e3e
00000050: ba57 3fbc 2544 df3b 47b2 e1bd 2281 473d
00000060: 17e3 f73d 4918 453d cebf 383e 482d 68bd
00000070: 4da9 ab3d 52de 5cbc 3c87 18bd cca5 353d
00000080: 85b9 68bd 4914 dc3c a00d c9bd a40a 9e3d
00000090: 54d3 7ebe 9544 663d 13ff 0e3e e611 50bd
000000a0: 213d fe3d 5f6c 85bb 9a38 9c3c e922 123e
000000b0: a088 a33d 4867 3c3e 1590 2d3d dcd2 94bc
000000c0: cce2 65be ef98 a13d 9065 aabd e450 d43d
000000d0: a8d8 42bd b012 9fbd 238c bbbb 8692 74bd
000000e0: 30f8 33be fe48 643d 8a84 563e 3834 ee3d
000000f0: b269 e83d 200c 063e d72c 2e3c cbb1 81bd
00000100: c4b3 803c 0059 de3d 247e d8bd b7aa 33bc
00000110: 6e49 2b3e 55bf 26be 631d 9ebd b427 8a3d
00000120: 3bd7 39be d1f7 ea3d 3782 723d bfca 203e
00000130: e7a1 c73d 0246 37bc 9a90 cc3c ba96 273d
00000140: 94ac 493e 45a2 963d aaeb c43d f00d eabc
00000150: 39e2 2e3e 5851 b43c 64e1 75be d33f 0abd
00000160: 414b c83d 8e48 323d 79c0 9c3d 1ee1 1fbe
00000170: 9c83 93bc 943d 03be 3651 babd 8f52 93bc
00000180: 3823 393e ff01 00be 128e 23be 1628 433c
00000190: 5ab3 0b3e 0116 55bc ad47 08be ba8a cfbc
000001a0: 8ef2 fcbc 35d2 76bd 4e6e 02bb ad3c 33bd
000001b0: 76f5 f93c d490 a13d fc22 243d 7869 95bd
000001c0: 9fce 663a 407e bb3c 9fa0 78bd 2791 d13d
000001d0: e8c7 4eba 277a b03c ba8f d8bd 0326 b9bd
000001e0: 4de6 7dbd e27f ffbd 90c1 613e d53a 7d3d
000001f0: d161 cebc 9d50 bbbd b5b9 253e ccc8 babd
00000200: eeed 11bd 74bb 99be 49a3 99bd 5db7 83bd
00000210: f913 743b 43c9 c3bd 3b1b d2bd f48a d83d
00000220: 28fd 62bc 578c 4d3d 5a8e 99bd 3969 c7bd
00000230: b8b9 2c3c 1190 8fbd 9599 73bd 0e8b 673d
00000240: 057c 743d b318 8b3c cfc9 cc3d 1e44 153d
00000250: 0f0c 84bb 1300 5e3d bf69 3ebd 9d77 c3bc
00000260: 9381 dc3c cc5b 22bd 51e4 ebbb c170 fdbc
00000270: 09d5 1e3d 27c8 80bd b794 cc3c 8e5d 86bd
00000280: b1d4 2f3d 6ee3 18bd 1ea0 fa3d 8a67 09bd
00000290: 9e1a 06bc b140 8ebc 78ba 183e 62b2 50bd
000002a0: 9802 5d3c 26ae c7bd a774 a7bd 9924 65bd
000002b0: f154 d53d e0c6 59bd 6b16 34bd ae6c debc
000002c0: 80fc cabd 2c27 2e3d 01a4 b7bd 9a95 033d
000002d0: a73a 403d 0fa3 13bd 43cc 0abd e281 88bd
000002e0: 66d4 e9bd 0b17 f3bd 61e4 43bd 5d87 56bd
000002f0: 6d9f f33b f00b 98bd f57e d83d 7df8 abbc
00000300: d10c e0bc ae51 a53d f441 09bc 063c 76bd
00000310: d916 373d ca84 7dbd 13c7 efbd c957 16bd
00000320: 7eb5 313d 99c9 983c 517d d13d 36a6 973d
00000330: 4a19 42bd 5e85 3d3d 58ba 57bd 651f 963b
00000340: 842a a13d 4088 76bd a9ab 1ebc 8bfb 303d
00000350: fc9b 3fbd f7de 973c 9a9e 28bd 84a8 e7bc
00000360: 154b 973d 02eb 0abd 635f 273d 9d4b 193d
00000370: dbf1 203c 8bab 523d 2845 e1bd 4f7c ccbd
00000380: 9c45 5f3d 700d 81bd dcfd f9bb 002b a83d
00000390: 5bd0 d0bc feab 533d 966f 2c3d 2bf8 a13c
000003a0: d3da b4bc d8fd b23d bdf7 19bd 088e 7dbd
000003b0: 29e0 473d 4bb3 9d3b cbdd a63a a73f 56bd
000003c0: cb9e c13d e43f 56bc 0b2e c53b 1969 b33d
000003d0: ccb8 2cbc 5a73 1dbb a8c6 85bc 6071 143d
000003e0: f478 7ebd 4eb7 673d b872 d83d db8c 1b3a
000003f0: b7b5 8a3d 5b23 04bd 5996 6b3d c3c2 1ebd
-0.04250478 -0.3067151 0.020265296 -0.1850045 0.22938922 0.036612604 -0.019235447 -0.15880905
0.09891572 0.1936963 0.024039054 -0.08506244 0.024071211 0.03526564 0.022674447 -0.04896263
0.1326331 0.110779546 -0.03517308 0.21773058 -0.0116786305 0.0068135434 -0.11020332 0.048707135
0.12103861 0.048118863 0.18041918 -0.05668381 0.08381901 -0.01348074 -0.037238345 0.04434757
-0.05681755 0.026865141 -0.09817052 0.07716873 -0.24885303 0.05621775 0.1396449 -0.05079832
0.12414003 -0.0040717567 0.019069958 0.1427113 0.079850435 0.18398774 0.042373735 -0.018166952
-0.22449797 0.07890498 -0.08320153 0.10366991 -0.0475699 -0.07767236 -0.0057234927 -0.05971005
-0.17575145 0.055733673 0.20948997 0.11631054 0.11348285 0.13090563 0.010630808 -0.063327394
0.015710719 0.10856819 -0.105709344 -0.010965995 0.1672723 -0.16283925 -0.07720449 0.06745854
-0.1814851 0.114730485 0.059206214 0.15702341 0.09747677 -0.011186125 0.024971295 0.04091523
0.1969474 0.07355169 0.09615262 -0.028571099 0.17078485 0.022011444 -0.24011761 -0.033752274
0.097799785 0.043526225 0.07653899 -0.15613219 -0.018007092 -0.12816459 -0.09097521 -0.017983703
0.18079841 -0.12500761 -0.15972164 0.011911413 0.13642636 -0.013005734 -0.13308592 -0.025334705
-0.030877378 -0.060259063 -0.0019902172 -0.043759037 0.030512553 0.07888952 0.040072426 -0.07295507
0.00088045927 0.02288735 -0.060700055 0.10232764 -0.0007888065 0.021542622 -0.10574289 -0.09040453
-0.06198721 -0.124755636 0.22046494 0.061823685 -0.025193127 -0.09146235 0.16184123 -0.0912033
-0.035627298 -0.30025828 -0.07501847 -0.06431458 0.003724335 -0.09559872 -0.102591 0.10573378
-0.0138543025 0.050182667 -0.074978545 -0.097368665 0.010542326 -0.070099 -0.05947264 0.056529097
0.059688587 0.016979551 0.099994294 0.036441915 -0.004029758 0.05419929 -0.046487566 -0.023860747
0.026917255 -0.039638326 -0.0071988483 -0.030937554 0.038777385 -0.06288176 0.024973257 -0.06560813
0.042927448 -0.03732627 0.12237571 -0.03354601 -0.008185057 -0.017364832 0.14914882 -0.05095137
0.013489388 -0.09750013 -0.081765465 -0.055943105 0.10416592 -0.053168178 -0.043966692 -0.027151432
-0.09911442 0.042517826 -0.08966828 0.032125093 0.046930935 -0.036044177 -0.033886205 -0.06665398
-0.11417465 -0.118696295 -0.04782522 -0.052375186 0.0074347765 -0.07424152 0.1057109 -0.020992512
-0.027349861 0.0807222 -0.008377541 -0.060115837 0.044699524 -0.061894216 -0.11707892 -0.036704812
0.043385975 0.018650817 0.1022898 0.07404749 -0.0473874 0.046269767 -0.052667946 0.0045813792
0.07869437 -0.060188532 -0.009684482 0.04320864 -0.046779618 0.018538935 -0.04116688 -0.028278597
0.07387368 -0.033915527 0.040862452 0.037425626 0.009823288 0.051433127 -0.10999519 -0.099846475
0.054509744 -0.06301391 -0.0076291393 0.082113266 -0.025489977 0.051677696 0.042098604 0.019771656
-0.022077 0.08739823 -0.037589777 -0.06190303 0.04879776 0.004812633 0.0012730894 -0.052306797
0.094541155 -0.013076756 0.0060174516 0.0876028 -0.010542106 -0.0024025054 -0.016330078 0.036240935
-0.06212707 0.056571297 0.10568756 0.000593377 0.067729406 -0.03226028 0.05751643 -0.038759958

bias f4 [64]
00000000: 7998 70bd 992e 09bd 585d 053d c087 92bd
00000010: df88 b13d 8423 07bc 7c18 a93d c82f b3bc
00000020: 46b0 b43d 47a8 bcbd ed89 cdbb 711c 993d
00000030: 9187 aebd d798 fcbb 4c6e 973b 4729 903d
00000040: ae0a 013d a0ca 7c3c f3d7 a7bd 0dba c23d
00000050: aff4 0d3d 3db1 9f3d 4ed8 383d fd5b b03c
00000060: 985a a0bd 1a61 0fbc 9547 88bd 5d34 9f3d
00000070: 23b4 d03c 9f09 53bd 21b1 683d 64ee 8b3d
00000080: c006 b03d aa35 653d f17d 803b 0935 9a3d
00000090: ea22 3c3d 41ce 483d e88c fc3b 6cf5 83bd
000000a0: 782e 1cbd dcb0 033d ea65 043d dd64 15bd
000000b0: 3060 823d 767e 0abc b07c 8fbd ca52 a93d
000000c0: 9330 6abd 20a5 6ebd 8476 003d 1ef0 9d3d
000000d0: d5e3 373c 2a0f 123d 1f3a 003d 88a3 073d
000000e0: f21d 0bbd cb8c 5cbd 767a af3d aa29 c63c
000000f0: b66e 04bc 89f4 603c 552e 673b fee2 af3d
-0.05873916 -0.033491705 0.032559723 -0.071547985 0.08668684 -0.008248214 0.08256623 -0.02187337
0.08822684 -0.09211784 -0.0062725456 0.07476128 -0.08521951 -0.0077086496 0.0046213027 0.07039123
0.031504326 0.015429169 -0.08195486 0.095081426 0.034657177 0.077974774 0.04512816 0.021528238
-0.078297794 -0.008751178 -0.06654278 0.077736594 0.02547652 -0.051522847 0.05680955 0.06832579
0.085950375 0.05595938 0.0039212634 0.07529647 0.045931734 0.049024824 0.007707227 -0.06443295
-0.038130254 0.032151088 0.032323755 -0.036473144 0.063660026 -0.008453002 -0.07006204 0.08267744
-0.05717523 -0.058262944 0.031363025 0.07711814 0.011223753 0.035658993 0.03130543 0.03311494
-0.033964105 -0.05384521 0.085682794 0.024189789 -0.008083036 0.013730177 0.0035275419 0.08588217

weight f4 [32, 64]
00000000: 4757 473e b947 dd3d 2592 ce3d e3b7 033e
00000010: 9dec 04be 6a0a 873c c3cd 6c3d 64ee e7bd
00000020: 527a ef3d bc4d 9abd 3df9 a93d 419d f9bd
00000030: 9944 9fbd 2a39 973d 67ea 033c 4b90 65bb
00000040: e536 373d 0eea a8bd 9a96 963c 3603 483e
00000050: 55bf f33d 162a d43c 2996 f03d 85f8 0abe
00000060: 0b69 46bd 5e63 16be a5a8 643e 032b 3abb
00000070: cb96 1abe 8348 a63d 3970 5ebc 0bd4 9cbd
00000080: 1eb0 933d db94 443c 0238 c63d 14f9 20be
00000090: 6fde 103e 5c1e 163d fadd b73c 7da4 84bd
000000a0: 47eb dfbd 3693 043e f0cc 863d d0db 963d
000000b0: be2d f5bd f4ae 493d 5496 0bbe afbd 3d3c
000000c0: 8964 1abe 07c4 84bc c306 15bc b912 26be
000000d0: 999a 0e3e 9e3f fbbc 6c51 e9bc a745 833d
000000e0: b66d f63c ba18 b2bd 49e1 c3bc 0b8b 9d3d
000000f0: 7310 0dbe e394 0fbe bfe3 3abd 495b b1bd
00000100: 47b8 243e 1432 f7bd a201 103d 35df 363d
00000110: 90a2 06be d8a1 08be c20c d13d 92dc cabd
00000120: d154 ef3d fc80 4fbd 1b59 83bc 4ede afbd
00000130: c7e2 71bd cbce d9bc 5b11 29be 8878 8dbd
00000140: 3a5a 613d 3535 b73b ccd1 35be 16d3 263e
00000150: bb67 953d 0e03 a2bd 85ab 343e efd7 d23c
00000160: be2f 39bc 8d20 03be 381a 893e a099 923c
00000170: df21 00bd 47b1 923d 2b06 aa3d 930e b13d
00000180: 7839 133e e4da 953d bad7 b53d 93bf 82bd
00000190: 317d d3bc 590e cc3d 0e59 cebd ca05 ffbd
000001a0: e827 d6bd e585 b83d 4ac4 463d 7090 173e
000001b0: 3b8a 44be 52aa 2ebd 44ea 62bd d2f8 cfbd
000001c0: 49e8 893b b395 853d b4fd a93d b320 99bd
000001d0: b68f f5bc 691f 1e3e a9d2 023d bff9 553d
000001e0: 8547 303e 7328 50bd 82df 17be 879d a53d
000001f0: 8fdb 163e 09c8 96bd b356 a3bd 7def 70bd
00000200: a10e fc3d 6c69 aabd 5824 9d3d 16fe fd3d
00000210: 6a8c 313c 346b cabd 2ce4 3d3d 41fa 42be
00000220: 34d5 8a3d 34c0 9cbd 4087 42bd 19e4 d2bc
00000230: f695 13bd 754d 4abd d6d1 563c 632d 35bd
00000240: aa17 343d 95d1 81bd a92c eabc 1ede 803e
00000250: 63c8 e7bd 0be1 aa3d 07b2 933d 3d55 32bc
00000260: 0f8e 2cbd 396d 7a3d ae81 ef3d 003b 9abd
00000270: 1f19 96bd 3f8d 363e 3d8d 4a3d 3247 f0bd
00000280: bacc 2c3e 9a4e 81bd e0a7 cabd caab a63c
00000290: bc2c e73d b89f 623d 3fba 14bb 9345 4fbc
000002a0: bcc1 17be def4 c3bd 1b55 91bd cdfd 77bd
000002b0: 283e 6bbd 3c16 483e 398c e0bb c56e fcbd
000002c0: 449f 063d 7577 d8bc 49cd efbd c0b6 50be
000002d0: 67d7 5c3c bef3 8a3d c346 a03d b82d 3a3e
000002e0: cf91 af3d 0e8f aa3d d82b 3cbe b49a cdbc
000002f0: 8882 d73d 69e6 d8bd 33d0 55be fc2d adbc
00000300: 2240 6dbe 41af b43d 7473 17be 830b 14bd
00000310: b9ea 153e a9d3 f4bc c789 86bd 0bdd 113e
00000320: 4980 77bc 9932 dc3d 7dc8 05be c1a3 7bbe
00000330: 631d bcbc 55ca e93d 06c1 8e3e 666e 6bbe
00000340: 79d1 d73d 8bfe 883e 963f 79bc fc29 41be
00000350: 7aac 983d ea51 f2bd 9c84 44be 59ba 5ebd
00000360: 0fa3 65be 483a c8bd 12d0 9abe 6a93 3dbe
00000370: bbdb 23bd b597 453c 4b55 233e 49a4 0d3d
00000380: 283a 5cbd ab37 c3bd b182 41bc 5c8d 8ebc
00000390: 5d74 663e e8aa 09be 38f4 b5be 80bf ea3d
000003a0: d972 0a3e 1631 8c3d ca76 203d ab92 fabc
000003b0: a146 7b3e 9cde 39be 4082 163e cf78 a13d
000003c0: ee92 22bc f096 a4bd bf40 fb3d 0054 7e3d
000003d0: 4df3 e9bd 3ec1 1cbe 5490 d1bd 87cc ebbd
000003e0: 8232 dfbc f38e adbd aa67 adba 1002 913d
000003f0: 2305 99be 1223 ce3d c0b7 5c3e 282a c8bc
0.19466887 0.10804696 0.100864686 0.12863116 -0.12980886 0.016484458 0.057813417 -0.11324766
0.116932526 -0.07534358 0.082994916 -0.12188197 -0.07776756 0.0738395 0.008051491 -0.0035028632
0.044730086 -0.082477674 0.01838236 0.19532475 0.11901728 0.025898974 0.11747391 -0.13571365
-0.04844002 -0.14686343 0.22329958 -0.0028406985 -0.15096585 0.08119299 -0.013576561 -0.076576315
0.07211326 0.011998381 0.096786514 -0.15720016 0.14147352 0.036650047 0.022444714 -0.06476686
-0.109335475 0.12946782 0.065820575 0.07366145 -0.11971615 0.049239114 -0.13631564 0.011580869
-0.15077414 -0.016206754 -0.00909585 -0.1621808 0.13926162 -0.030669983 -0.028481208 0.064097695
0.030081611 -0.086961225 -0.023911135 0.07692536 -0.13775806 -0.1402164 -0.04562735 -0.086599894
0.16085921 -0.120700985 0.035157807 0.04464646 -0.1314795 -0.13342988 0.102075115 -0.09905352
0.11686099 -0.05066012 -0.0160337 -0.08587323 -0.059054162 -0.026587864 -0.16510527 -0.06907755
0.055017687 0.0055910596 -0.17755812 0.1629146 0.07295176 -0.07910739 0.17643555 0.02573773
-0.0113028865 -0.12805386 0.26777816 0.01789552 -0.031282302 0.07162719 0.08301958 0.08645358
0.14377391 0.07317141 0.08879037 -0.06384196 -0.025816532 0.09963674 -0.100755796 -0.12452276
-0.1045683 0.09009913 0.04852704 0.14801192 -0.19193356 -0.0426429 -0.055399194 -0.101548806
0.0042085988 0.065226935 0.08300343 -0.0747694 -0.029975753 0.1544167 0.031939182 0.05224013
0.17214783 -0.050819825 -0.14831355 0.080866866 0.14732192 -0.073623724 -0.07975521 -0.058822144
0.12307478 -0.08320889 0.07672948 0.12401979 0.0108367 -0.098837286 0.04636018 -0.19040777
0.067789465 -0.07653847 -0.047492266 -0.025743531 -0.036031686 -0.049390275 0.013111552 -0.044232737
0.04396788 -0.06338803 -0.028585749 0.25169462 -0.113175176 0.08343705 0.072116904 -0.01088458
-0.042127665 0.06113932 0.11694656 -0.075307846 -0.0732901 0.17827319 0.0494511 -0.117323294
0.16874972 -0.0631382 -0.09895301 0.020345587 0.11287829 0.0553281 -0.002269402 -0.012650865
-0.14819998 -0.09568189 -0.07096311 -0.060544778 -0.057432324 0.19539732 -0.0068526533 -0.12325815
0.03286673 -0.026424149 -0.11709077 -0.20382214 0.01347909 0.067847714 0.07825997 0.18181503
0.08572733 0.08328067 -0.183761 -0.025098182 0.10522944 -0.10590822 -0.20880203 -0.021140091
-0.23168996 0.088224895 -0.14790136 -0.03614379 0.14640321 -0.029886084 -0.06569248 0.14244477
-0.015106269 0.10751838 -0.13064761 -0.24574186 -0.022963231 0.11415545 0.2788164 -0.22991332
0.105380006 0.267567 -0.015212914 -0.18863672 0.07454772 -0.1183203 -0.19191211 -0.054376934
-0.22425483 -0.09776741 -0.3023687 -0.18513265 -0.040004473 0.012060096 0.15950505 0.034580503
-0.0537664 -0.09532102 -0.011810944 -0.01740139 0.22505327 -0.13444102 -0.35537887 0.11462307
0.13520373 0.068453 0.039175786 -0.030587515 0.24538662 -0.18151325 0.14698124 0.078843705
-0.009922726 -0.080366015 0.12268209 0.062091827 -0.11423359 -0.15308091 -0.102326065 -0.1151362
-0.027245764 -0.08474531 -0.0013229747 0.070804715 -0.29886732 0.10065283 0.2155447 -0.024434164

bias f4 [32]
00000000: 50fa a4bd 7c34 ebbc 313d 5dbc 4dd0 a1bd
00000010: e2db 46bd bfc6 8a3d 550b cb3d 1921 ff3d
00000020: bf33 14bd 6d21 d5bd 89f9 ae3c 8b1a aabc
00000030: 0298 be3d b813 693a 35b4 933c eecd 853d
00000040: 5614 09be f970 a5bd 18e1 52bd b94f 123d
00000050: a944 d239 6461 de3c d7f0 32bd 85ec fd3d
00000060: 3000 08be a17a d2bd 7a7b 9abd ed7d e4bd
00000070: a099 89bc f57e c1bd 86aa 8e3c 5e4e 9c3d
-0.08055556 -0.02871155 -0.013503359 -0.07901058 -0.04854954 0.06776189 0.09914271 0.12457485
-0.03618216 -0.10406766 0.021359222 -0.02076461 0.09306337 0.0008891183 0.018030265 0.065334186
-0.13386664 -0.080781884 -0.051484197 0.03572056 0.00040105477 0.027146049 -0.043686714 0.12398628
-0.13281322 -0.10277296 -0.075430825 -0.11156831 -0.016796887 -0.09448043 0.017415296 0.07632135

weight f4 [16, 32]
00000000: f2c8 b03e d064 953e d1c0 c63d 8318 67be
00000010: baa1 98be 6161 6fbe a286 9b3d f5c2 4dbe
00000020: 7afa adbe 7f12 b5bc 5c3b 8e3e c483 f6bd
00000030: 804f 053e 44d8 be3c 8067 8abd dea1 f03c
00000040: 5efa 8a3e 5ac6 01bc 8a4d c43e f952 a3be
00000050: ce15 b0be 5119 7abd 3e74 bdbe fdb4 4ebe
00000060: 904e c73b f506 47be 1c58 8a3d 83b2 ef3d
00000070: 033a e0bd a4d2 3d3e d3cf 233d 2447 6bbe
00000080: 0228 81be dcf9 aabe b1d0 55be a6c5 a83e
00000090: 5487 d83c bf94 3d3d b65d 9b3d 3328 b03e
000000a0: ab03 ea3d cf63 573d aeaf 32be 637d 903e
000000b0: 455d 4bbe 6be1 9dbe d595 d43c 2639 a5bd
000000c0: cb77 81bd ba1a 3f3e 9544 2ebe 99b3 c53e
000000d0: b3bf a83d 13dc 8fbd cc79 c13d 847e aa3e
000000e0: 49f7 19be 7b9a cc3d 33c1 81bd a44e 31be
000000f0: d54d ab3e e186 00bf 76cb 9d3d 50c8 8d3e
00000100: 3ab8 06be 6b24 bbbe 0e60 75be 896e 04bd
00000110: 89e9 623e a762 023e bf04 993c 9b2d 953e
00000120: d439 013e 38f1 023e 0834 85be 824d 243e
00000130: bccc 88be 407e 03be 886f acbc 46af f2bd
00000140: 4f11 92be 377c d5bd 28fe 83be 5fe2 9b3e
00000150: 03bf b73e 05e0 4dbe 642d 983e 5de0 9f3e
00000160: 9065 56be 4e7d 56bd eec4 163d bed0 64be
00000170: 725f 003e e9e0 b8bd 0ad2 433e 181a b33e
00000180: 127c b73e a65f 103e e8d1 9f3c 0594 d5bb
00000190: cfd2 87be 5731 b2ba b25d 76be b13d b7be
000001a0: c7e6 2cbe f6ca c0bd d596 a93e 14c4 c5bd
000001b0: 65b7 2e3e 1bef d73c 5729 09be 6973 6e3e
000001c0: 7a37 b13b ebaa cabd 6038 edbd 4ea4 1cbe
000001d0: 6bb0 a8be e3e9 2f3e a38a 8abd f9b0 a7be
000001e0: 2fdb 4c3e 8384 c2bd d890 1abd b2cb 9b3e
000001f0: 4dad 92be c97d 783d 5dbe 09be 420f 8dbe
00000200: e895 843e 885e ac3e 5d6c 0a3d 1c1b 89be
00000210: e2a3 cdbd 4290 28be e45c 55be 0f4b 93be
00000220: f24a 41be 4add 85be b97a 623e fc4a ffbb
00000230: 7d39 0d3c 501d 963e d0c0 57be c008 6f3e
00000240: a715 293e 68c8 4bbe d00b c0bd 3273 98bd
00000250: 680a b8be eac8 ea3c 8ebc 8cbe 26b8 96be
00000260: 7b2d 8e3d 0857 54be 8756 183e 53c4 a83d
00000270: 9532 d9bb b4b3 c53d 1d8b 6fbd dacd 6cbe
00000280: 7555 d9bd b171 55be ae28 b9bd 3b13 423d
00000290: 97f8 9bbd 6a46 323e 5aa8 db3d 9561 993e
000002a0: ed91 783e 313e 293e 0735 8dbe 12c1 5f3e
000002b0: 1f02 223d 8b0e 44be dd5e 8b3e 7809 ccbd
000002c0: 7adf 7cbe b7e1 533d c189 ffbd d5f0 31bc
000002d0: 64fd 033c 59b2 fdbd 8e17 163e 51cc 1d3e
000002e0: f753 4ebe d8d9 d13d 2012 81bd a4b3 9bbd
000002f0: d80b 233e f824 06be 2781 c13d e376 2b3e
00000300: 8771 a0be 7ce0 b2be f53a aa3b 8877 333d
00000310: ee20 883d e025 403d cfbc 953c ecd0 533e
00000320: 02fc 543e b234 dc3d ac92 03be c126 323c
00000330: ede1 84be 780e b7be b617 3f3e 8d49 403d
00000340: 8b36 87be ec84 1e3e f651 30bd a918 4c3e
00000350: 4437 143e a30e 14bd 6831 14bc bf96 343e
00000360: 1ee3 8cbe 8bc1 913d dca2 5fbe f536 8abe
00000370: 0c0b 0a3c 0f1e b4bd 8346 59bc d33d 8c3e
00000380: c1ec b33e 3057 873e d8c6 83bd c7de 62be
00000390: 4f42 3bbe 9875 ffbd 5034 20be d6da 3abe
000003a0: 28fa edbd 677e 7ebe 34ed ac3d d429 79be
000003b0: 5779 1c3e ba49 6abc 7620 6bbe 9514 483e
000003c0: a86e d53c ba4d 25be 16ce b63d 04a8 40be
000003d0: 9a33 08be 8e45 4d3e 380d 563b aec1 8abe
000003e0: f4f8 503b 4e4b 3f3d abca 73bb 12c4 923e
000003f0: d39d 98be 41c1 6d3e d28c babd 240a 20be
0.3452831 0.29178476 0.097047456 -0.22567944 -0.29810888 -0.23376991 0.075940385 -0.20093901
-0.3398016 -0.022103546 0.27779663 -0.12036851 0.13018608 0.023296483 -0.06758022 0.02937406
0.2714414 -0.007920826 0.38340408 -0.3189924 -0.34391636 -0.0610593 -0.37002748 -0.20186229
0.0060823634 -0.19436248 0.06755087 0.1170397 -0.10948565 0.18537384 0.03999312 -0.22976357
-0.25225836 -0.33393753 -0.2088039 0.32963294 0.026431717 0.046284433 0.07586233 0.3440567
0.11426481 0.05258542 -0.17449829 0.28220662 -0.19859798 -0.30836043 0.025950352 -0.08067541
-0.06321677 0.18662539 -0.1701835 0.38613585 0.08239689 -0.07024398 0.09447059 0.3329965
-0.15035738 0.09990402 -0.06335678 -0.17315155 0.3345782 -0.5020581 0.07704823 0.2769189
-0.13156214 -0.36551222 -0.23962423 -0.032331977 0.22159399 0.12732945 0.01867902 0.29136357
0.12619716 0.1278733 -0.2601626 0.16045192 -0.267187 -0.1284113 -0.021049276 -0.11849837
-0.2852883 -0.10424083 -0.25779843 0.30446145 0.35887918 -0.20104988 0.2972213 0.31225863
-0.2093718 -0.052365594 0.0368089 -0.22345254 0.1253641 -0.09027273 0.19123092 0.34980845
0.35836846 0.14098987 0.01950927 -0.0065178894 -0.26528022 -0.0013595027 -0.2405918 -0.35789254
-0.1688491 -0.09413712 0.33122888 -0.096565396 0.17062147 0.026359132 -0.13394676 0.23286213
0.0054082246 -0.09895881 -0.11583018 -0.15297052 -0.32947096 0.17179064 -0.06764724 -0.32752207
0.20005487 -0.09497931 -0.03773579 0.30428845 -0.28647843 0.060666833 -0.13451524 -0.27550703
0.2589562 0.33665872 0.03379475 -0.26778495 -0.10041024 -0.1646128 -0.20836216 -0.28768203
-0.18876246 -0.26145393 0.22117127 -0.0077909213 0.008619663 0.2931924 -0.21069646 0.23343182
0.16512166 -0.19900668 -0.09377253 -0.07443847 -0.3594544 0.028660256 -0.27487606 -0.2943737
0.069422685 -0.20736325 0.14876758 0.08240571 -0.0066283443 0.09653416 -0.05848228 -0.23125401
-0.10612003 -0.20844151 -0.09040962 0.04738162 -0.07615774 0.17409673 0.1072547 0.29957262
0.24274416 0.1652763 -0.2757952 0.21850994 0.039552804 -0.19146173 0.27220812 -0.099627435
-0.24694625 0.05172893 -0.12477446 -0.0108606415 0.0080560185 -0.12387533 0.14657423 0.15409972
-0.20149218 0.102466285 -0.06302285 -0.07602623 0.15922487 -0.1310004 0.09448462 0.1674457
-0.31336614 -0.34936893 0.0051950165 0.043815166 0.06646906 0.04691112 0.018278508 0.20685166
0.20799258 0.10752238 -0.1284892 0.010873497 -0.25953618 -0.35753226 0.18661389 0.046945143
-0.264088 0.15480393 -0.043046914 0.19931282 0.14474207 -0.03614677 -0.0090449825 0.1763563
-0.27517027 0.071169935 -0.2183947 -0.26995054 0.008425485 -0.08794796 -0.01326144 0.27390918
0.35141566 0.26433706 -0.06434411 -0.22155295 -0.18287013 -0.12473601 -0.15644956 -0.18247542
-0.11619979 -0.24852906 0.084436804 -0.24332362 0.15280662 -0.014299804 -0.22961602 0.19539101
0.026053742 -0.16142932 0.089260265 -0.18814093 -0.13300934 0.20046064 0.0032661688 -0.2710089
0.003188667 0.046702676 -0.0037199657 0.28665215 -0.2980791 0.23218252 -0.091088906 -0.15628868

bias f4 [16]
00000000: 0e68 b1bc 19b5 c8bd 3879 00be f4e4 17bd
00000010: b793 2cbb 2abe 323e b873 a23d 5b84 27be
00000020: fcc3 203e fc64 2bbe cb84 14bd cf68 e93d
00000030: 10d8 11be 150f 52bb 97cf 19be ced2 203e
-0.021656062 -0.09800167 -0.12546241 -0.03708358 -0.0026333162 0.17455354 0.07932228 -0.16359083
0.15699762 -0.16737741 -0.036259454 0.11396944 -0.14242578 -0.0032052447 -0.15020595 0.15705416

weight f4 [1, 16]
00000000: 4442 a9be 5d09 8c3e 19e9 023f d68b 1fbf
00000010: 2a4c f1be c10d d53e a249 193f d869 2fbf
00000020: 2bef cc3e c869 f7be 4fae be3e 954b c7be
00000030: d87a 1cbf 6b7d fbbe 07ba c7be bed0 cd3e
-0.3305837 0.27350894 0.5113693 -0.6232275 -0.4712842 0.41612056 0.5987798 -0.6852088
0.4002622 -0.48322892 0.37242362 -0.38924852 -0.61124945 -0.49119124 -0.39009115 0.4019832
