UnsupervisedConv.pth (torch_old, 74690 bytes, 5 tensors)

weight f4 [16, 1, 3, 3]
0.063841626 0.19328637 0.16909586 0.22202972 -0.08422784 0.15784368 -0.28186294 -0.06239335
0.088272385 0.19214322 -0.28699043 0.20162445 -0.10447991 0.30332094 -0.049740802 -0.24873774
-0.19576319 0.13081737 -0.033175755 0.030464383 0.081252895 -0.30594343 0.2290024 0.2144079
-0.26957184 0.16644304 -0.1873861 -0.025237799 -0.014332325 0.32208765 -0.00940985 -0.3071545
-0.14319798 0.00051599677 0.08219784 0.21438108 -0.31955782 -0.053878658 -0.1714903 0.26462722
0.14596175 -0.04352264 0.27523032 -0.029112568 -0.25440437 0.12773284 0.12528595 -0.13152234
0.2717714 -0.14744961 -0.07877845 0.19616413 0.1879084 -0.26472294 -0.14581315 0.025397569
-0.17911613 0.2371938 -0.26347354 0.35187072 0.20481193 -0.1412117 -0.33136302 -0.19243608
-0.082087964 0.22002077 0.09898695 0.2891809 0.11427856 0.34928697 -0.29345807 -0.21139036
0.10671037 0.3166551 0.23310211 0.09986233 -0.13895018 -0.17852208 -0.12143677 -0.30256516
-0.27755573 -0.3335283 0.048668906 0.25933224 0.26203 -0.044224408 0.30880684 0.18395731
-0.21594375 0.15354943 0.12418659 -0.1726038 -0.19958122 0.12331048 0.3462795 0.08775997
0.089777 -0.30824345 0.11773165 0.24921599 -0.25308657 -0.22137591 -0.18615827 0.0641903
-0.31259722 -0.14757673 -0.31724918 0.03350663 -0.022852903 0.019493906 0.19617754 -0.101577
-0.23859538 0.1627943 -0.0613122 0.3329043 -0.21226953 -0.2951872 0.22116108 0.2466829
-0.33640102 -0.04149759 -0.05815873 0.1062063 0.10774375 0.25142065 0.032740414 0.2572753
0.010577049 -0.2624172 0.23810734 0.17992285 -0.096358895 0.0671067 -0.029936653 0.15886499
-0.26412928 0.21663766 -0.063205056 0.12486679 -0.13323177 0.18495052 0.13767001 -0.1402128
00000000: 66bf 823d ddec 453e 7727 2d3e c25b 633e
00000010: a57f acbd c6a1 213e 5750 90be 2b90 7fbd
00000020: 27c8 b43d 31c1 443e 69f0 92be a476 4e3e
00000030: 90f9 d5bd e24c 9b3e 03bd 4bbd 1bb5 7ebe
00000040: 2576 48be fdf4 053e 4de3 07bd 7190 f93c
00000050: eb67 a63d 9ea4 9cbe 9b7f 6a3e bf8d 5b3e
00000060: 5205 8abe 0b70 2a3e 24e2 3fbe 80bf cebc
00000070: 21d2 6abc ace8 a43e c62b 1abc 5b43 9dbe
00000080: 7ea2 12be f543 073a 5757 a83d b786 5b3e
00000090: 159d a3be deaf 5cbd 279b 2fbe 387d 873e
000000a0: ff76 153e cc44 32bd fdea 8c3e 7b7d eebc
000000b0: 4a41 82be 66cc 023e f64a 003e cbad 06be
000000c0: 9f25 8b3e 08fd 16be 9956 a1bd 40df 483e
000000d0: 0f6b 403e c489 87be 0b50 15be 900e d03c
000000e0: 386a 37be eee2 723e 01e6 86be 6628 b43e
000000f0: 38ba 513e cd99 10be 6aa8 a9be f70d 45be
00000100: bc1d a8bd 204d 613e acb9 ca3d 850f 943e
00000110: e10a ea3d bed5 b23e 2340 96be b776 58be
00000120: f78a da3d 9e20 a23e 52b2 6e3e 9f84 cc3d
00000130: f548 0ebe 7ece 36be d7b3 f8bd d2e9 9abe
00000140: c91b 8ebe 39c4 aabe 0c59 473d 32c7 843e
00000150: cc28 863e a724 35bd ee1b 9e3e 4e5f 3c3e
00000160: 5c20 5dbe 103c 1d3e 8a55 fe3d 0dbf 30be
00000170: 055f 4cbe 348a fc3d 8c4b b13e 80bb b33d
00000180: 01dd b73d 16d2 9dbe 4b1d f13d 7a32 7f3e
00000190: 9094 81be 5eb0 62be 46a0 3ebe 3476 833d
000001a0: be0c a0be 5b1e 17be 7c6e a2be 403e 093d
000001b0: 0336 bbbc afb1 9f3c c4e2 483e 9a07 d0bd
000001c0: 5952 74be 8db3 263e 8022 7bbd 6f72 aa3e
000001d0: 2f5d 59be c722 97be 0d78 623e 719a 7c3e
000001e0: c13c acbe 60f9 29bd d937 6ebd b082 d93d
000001f0: c1a8 dc3d 35ba 803e d01a 063d 97b9 833e
00000200: 5c4b 2d3c 8c5b 86be 69d2 733e b23d 383e
00000210: d057 c5bd 3d6f 893d b63d f5bc 81ad 223e
00000220: f43b 87be 43d6 5d3e a771 81bd 29ba ff3d
00000230: e96d 08be ab63 3d3e 5ef9 0c3e f293 0fbe

bias f4 [16]
-0.5063803 0.2594513 0.42200786 -0.0006996578 -0.1658111 -0.16115615 -0.0392015 0.10788418
0.33972853 -0.024668345 0.04106496 -0.30907017 -0.18895228 0.13113226 0.020412605 -0.008674137
00000000: 24a2 01bf cdd6 843e 6a11 d83e 3d69 37ba
00000010: 63ca 29be 1e06 25be c191 20bd 62f2 dc3d
00000020: e6f0 ad3e 4515 cabc bb33 283d 723e 9ebe
00000030: b57c 41be 8947 063e 5638 a73c f81d 0ebc

weight f4 [16, 16, 3, 3]
-0.044358436 -0.14429583 -0.13478038 0.07655943 -0.04294401 0.026788658 -0.0031859926 -0.0075335437
-0.029773198 -0.074867815 -0.080866225 -0.052959755 0.06148674 0.52196133 -0.021729434 0.045388382
-0.061422393 0.12889808 0.059931833 -0.07466896 0.01017196 0.01472573 0.4568377 0.020514842
-0.20481119 0.059625953 -0.124955244 -0.018679317 -0.021238133 -0.043381646 0.016829865 -0.085961126
-0.065884426 0.056042343 -0.07794339 0.14926012 -0.00831453 -0.11318689 -0.05794597 0.09012059
0.04204189 -0.047436006 -0.013150795 -0.031183869 -0.080859125 0.0010963855 0.023274863 -0.10474726
0.056662552 0.041948266 -0.028297337 0.064900056 0.04861913 0.06620226 -0.03807336 0.023916937
0.0042438433 0.2832075 0.08631259 -0.23148736 -0.045065284 0.011711426 -0.024300128 0.03155212
-0.0036921976 -0.12961635 -0.043122556 -0.010169197 0.010310375 -0.047786057 -0.022787701 0.050896063
-0.043074008 0.024215661 0.061739486 0.031104991 0.016094886 -0.050958615 -0.14332783 0.66610575
0.07740208 -0.06820743 -0.10172974 -0.12849626 0.06638346 0.05801244 0.06807097 -0.031556148
0.073644176 0.031053461 0.014631653 -0.14686896 -0.04183135 0.06453823 0.06125527 0.061123285
0.007778879 0.008262914 0.05007383 -0.0144119635 0.02816818 0.03250134 -0.03626149 0.08210374
-0.012486719 0.080219336 0.08225279 0.029593118 -0.02606354 -0.15249869 -0.008163197 -0.0861884
0.25595868 -0.109532334 0.01382865 0.09163444 -0.04577031 0.054569438 -0.13241598 -0.12617262
-0.017880583 -0.11375994 0.11733326 0.11460776 0.05074062 -0.020350825 0.03033258 -0.14731553
-0.16272272 0.052973777 -0.022758342 0.03572604 -0.042492058 0.083287284 0.052632198 -0.009319284
-0.011364048 -0.102825575 -0.05271484 -0.02290583 -0.054167267 0.06359029 -0.023545228 0.006978715
-0.048910916 -0.057560742 -0.030556917 -0.06109535 -0.009175437 0.003202379 -0.024170708 -0.006472783
0.07337345 -0.04122319 0.06847387 0.07797933 0.052711092 -0.07066402 0.06826205 -0.043909248
-0.047739115 0.034490053 -0.045585196 0.07508432 0.06811736 -0.05617079 -0.055396102 0.02596847
0.03584884 -0.0048257136 -0.06440448 0.031689703 0.017238557 -0.04643037 -0.06438037 -0.02052819
0.031806268 -0.05308598 -0.055465575 -0.030330155 -0.06241275 -0.08248873 -0.030336153 -0.017825002
0.05345801 -0.08241345 -0.027792804 -0.05768786 -0.027174257 -0.036402814 0.0384906 0.017569363
-0.007260988 -0.06457545 -0.08573853 -0.0181191 0.017488696 -0.08466822 0.083268754 0.04599639
0.061404623 0.074473664 -0.023810582 -0.014907871 0.010426909 0.0764327 0.03530892 0.059898533
0.03227996 -0.06703408 0.053285092 0.0067113824 0.044371344 -0.009581027 0.02869696 -0.02401998
0.019933723 0.01782269 0.004157245 0.028633587 -0.06095762 -0.02104361 -0.009060863 -0.053164344
0.064410776 0.049953155 -0.0020313263 -0.058754586 -0.044162553 -0.058979586 -0.058196343 0.0060575823
0.0046992362 -0.02162268 0.03152982 -0.022058934 -0.048454475 0.049183533 -0.06897059 0.010737759
-0.07059359 0.077896714 0.05696035 0.06473196 -0.054941446 -0.06785846 -0.071398675 0.01816962
-0.07251196 0.046749033 0.0720206 -0.06888615 -0.046631873 -0.015465356 0.05640959 0.076755024
00000000: 31b1 35bd 49c2 13be de03 0abe 31cb 9c3d
00000010: 0fe6 2fbd e373 db3c 16cc 50bb f2db f6bb
00000020: ece6 f3bc 4c54 99bd 319d a5bd 54ec 58bd
00000030: 85d9 7b3d 429f 053f ed01 b2bc 2be9 393d
00000040: 0c96 7bbd dcfd 033e 157b 753d 0aec 98bd
00000050: 4ba8 263c 3044 713c a2e6 e93e be0e a83c
00000060: 06ba 51be 583a 743d 89e8 ffbd 5e05 99bc
00000070: 98fb adbc f4b0 31bd c9de 893c 630c b0bd
00000080: 6aee 86bd a88c 653d c9a0 9fbd a5d7 183e
00000090: ab39 08bc 87ce e7bd c158 6dbd 2591 b83d
000000a0: 1e34 2c3d 424c 42bd 6f76 57bc 5075 ffbc
000000b0: 7899 a5bd 98b4 8f3a edaa be3c bb85 d6bd
000000c0: fe16 683d f2d1 2b3d d1cf e7bc 52ea 843d
000000d0: da24 473d 0d95 873d d0f2 1bbd 74ed c33c
000000e0: f00f 8b3b 9300 913e a8c4 b03d 060b 6dbe
000000f0: 6096 38bd 48e1 3f3c 1011 c7bc cc3c 013d
00000100: ccf8 71bb 26ba 04be 47a1 30bd b49c 26bc
00000110: d9ec 283c 50bb 43bd 46ad babc 6478 503d
00000120: 5f6e 30bd ec5f c63c 8be2 7c3d e5cf fe3c
00000130: 6cd9 833c fbb9 50bd 88c4 12be e885 2a3f
00000140: fb84 9e3d 56b0 8bbd af57 d0bd 8694 03be
00000150: 0df4 873d 749e 6d3d cb68 8b3d 0541 01bd
00000160: c2d2 963d d463 fe3c 9ab9 6f3c d164 16be
00000170: 5a57 2bbd 9f2c 843d cee6 7a3d 695c 7a3d
00000180: f7e5 fe3b 2c61 073c 371a 4d3d 2820 6cbc
00000190: f4c0 e63c 2020 053d ee86 14bd 0126 a83d
000001a0: 1895 4cbc 094a a43d 2774 a83d 446d f23c
000001b0: 3483 d5bc 9e28 1cbe eebe 05bc 8b83 b0bd
000001c0: 040d 833e 7d52 e0bd 9091 623c d6aa bb3d
000001d0: a679 3bbd 3484 5f3d 0e98 07be 6533 01be
000001e0: 4d7a 92bc f9fa e8bd 6c4c f03d 79b7 ea3d
000001f0: 65d5 4f3d c6b6 a6bc 087c f83c e2d9 16be
00000200: c9a0 26be 08fb 583d b46f babc 7855 123d
00000210: 270c 2ebd 8692 aa3d dc94 573d e9af 18bc
00000220: 4630 3abc 3796 d2bd 84eb 57bd 02a5 bbbc
00000230: 7fde 5dbd a03b 823d ece1 c0bc b4ad e43b
00000240: d056 48bd d0c4 6bbd 8052 fabc 1e3f 7abd
00000250: 9254 16bc 01df 513b a601 c6bc a419 d4bb
00000260: d244 963d a6d9 28bd 073c 8c3d a1b3 9f3d
00000270: 96e7 573d 4cb8 90bd f9cc 8b3d 2fda 33bd
00000280: 178a 43bd 7145 0d3d 8bb7 3abd cfc5 993d
00000290: 1d81 8b3d 5813 66bd 06e7 62bd d4bb d43c
000002a0: 3cd6 123d 0521 9ebb 7fe6 83bd 10cd 013d
000002b0: e037 8d3c c62d 3ebd dbd9 83bd bc2a a8bc
000002c0: 4a47 023d af70 59bd df2f 63bd f276 f8bc
000002d0: 83a4 7fbd daef a8bd 8683 f8bc bd05 92bc
000002e0: c9f6 5a3d 62c8 a8bd bcad e3bc 1b4a 6cbd
000002f0: 8c9c debc 1e1b 15bd 52a8 1d3d a0ed 8f3c
00000300: 95ed edbb 2240 84bd af97 afbd 826e 94bc
00000310: 7444 8f3c 8866 adbd cf88 aa3d b666 3c3d
00000320: 6a83 7b3d a685 983d 690e c3bc 2540 74bc
00000330: a0d5 2a3c bf88 9c3d 16a0 103d 2a58 753d
00000340: fe37 043d 2a49 89bd 7841 5a3d 28eb db3b
00000350: babe 353d bdf9 1cbc e315 eb3c 8dc5 c4bc
00000360: 0c4c a33c e400 923c 8039 883b fc90 ea3c
00000370: b3ae 79bd a663 acbc 0474 14bc dbc2 59bd
00000380: cce9 833d ae9b 4c3d 0020 05bb a6a8 70bd
00000390: cbe3 34bd 9494 71bd 4a5f 6ebd af7e c63b
000003a0: 0dfc 993b 0c22 b1bc 6a25 013d f0b4 b4bc
000003b0: 3378 46bd ac74 493d 7440 8dbd 6ded 2f3c
000003c0: 5f93 90bd 5088 9f3d 424f 693d 3192 843d
000003d0: 480a 61bd 60f9 8abd 7839 92bd 74d8 943c
000003e0: 2781 94bd ea7b 3f3d 897f 933d 2f14 8dbd
000003f0: 1001 3fbd 6862 7dbc be0d 673d bd31 9d3d

bias f4 [16]
-0.14957213 0.051730674 0.02029932 -0.044006582 -0.0611132 -0.09349128 0.06933212 0.05808555
0.16790895 -0.10131211 0.03680533 -0.19783619 0.030987106 -0.29746926 0.20159064 -0.045722794
00000000: 7029 19be 8be3 533d c24a a63c 3f40 34bd
00000010: d651 7abd 5b78 bfbd 00fe 8d3d 1deb 6d3d
00000020: 53f0 2b3e b97c cfbd 30c1 163d 9295 4abe
00000030: acd8 fd3c e44d 98be c76d 4e3e d347 3bbd

weight f4 [1, 16, 3, 3]
0.029454753 -0.008257465 0.00939947 0.02384949 -0.0035178757 0.09160317 0.056078117 0.0048871147
0.03961599 0.016257413 -0.009210527 0.033226557 0.03432239 -0.0072388165 -0.04002693 0.028193682
0.044917144 -0.02209878 -0.015512593 -0.03080173 0.05162912 0.04914207 -0.0383229 -0.041319758
-0.04004706 0.067422904 -0.06898023 0.06815221 0.018233486 0.045578785 -0.08062826 -0.028382346
-0.028250884 -0.0062750876 -0.079509705 -0.041644882 0.071090296 0.04263851 0.14213347 0.049839534
-0.047858495 -0.059787754 -0.1201028 -0.07554654 -0.05694913 0.03807172 0.06290879 0.043029733
-0.0066149533 -0.035014648 0.009094149 0.013834484 -0.064469986 0.002160333 0.04888385 0.013987302
-0.069926806 0.07334518 -0.06592833 -0.057883825 0.0467391 -0.004060883 -0.017196791 0.045040626
0.03112465 0.09570336 0.13982867 -0.07591832 -0.10622011 -0.025552757 0.0061047077 -0.10555791
0.00041736948 0.101257645 -0.045763653 0.109266244 -0.10510858 -0.08549432 0.062221102 -0.01770338
0.03816136 0.05470429 0.038104687 0.025578272 0.020480622 0.054841865 0.032096107 -0.07623421
0.046639085 0.039478518 -0.10534541 0.014714965 0.067016535 0.095561944 0.012314463 0.003927666
-0.088435166 0.029894909 -0.04704649 0.033325005 -0.000975262 0.10198916 0.037088837 -0.09166301
-0.020764336 0.0020203295 0.06685315 -0.03223257 0.07141214 -0.07289633 0.07655039 -0.016082339
-0.009278201 -0.044672184 0.066833116 -0.024868947 -0.0338401 0.00768618 -0.07478381 0.0651456
0.06068322 0.009332976 -0.043950085 0.061341282 0.041895997 0.010756921 0.030106058 0.04429766
0.033636894 -0.0004020956 -0.003829519 -0.10107881 -0.029668218 -0.063550845 0.08298978 -0.0797958
0.004884802 -0.015157729 -0.03024318 0.0707015 -0.07221525 0.014232703 -0.003999792 0.046522103
00000000: 184b f13c 524a 07bc 3c00 1a3c 0160 c33c
00000010: 298c 66bb 719a bb3d 2bb2 653d 1724 a03b
00000020: 6044 223d 442e 853c c0e7 16bc 9218 083d
00000030: a295 0c3d 9833 edbb 47f3 23bd 70f6 e63c
00000040: 0afb 373d 8008 b5bc 8828 7ebc e953 fcbc
00000050: 0e79 533d 3249 493d 79f8 1cbd e83e 29bd
00000060: 6308 24bd 0515 8a3d 8245 8dbd 6393 8b3d
00000070: 645e 953c d2b0 3a3d 6e20 a5bd 1882 e8bc
00000080: 666e e7bc 409f cdbb fcd5 a2bd d393 2abd
00000090: ca97 913d b8a5 2e3d 708b 113e 8a24 4c3d
000000a0: 4507 44bd 01e4 74bd 75f8 f5bd 25b8 9abd
000000b0: 7e43 69bd 18f1 1b3d 53d6 803d f23f 303d
000000c0: 40c2 d8bb 856b 0fbd a0ff 143c 08aa 623c
000000d0: d708 84bd 6094 0d3b 6f3a 483d ff2a 653c
000000e0: c935 8fbd ff35 963d 6f05 87bd 9717 6dbd
000000f0: 8071 3f3d 2811 85bb 49e0 8cbc 857c 383d
00000100: 1ff9 fe3c 2000 c43d 3f2f 0f3e 107b 9bbd
00000110: ee89 d9bd 0454 d1bc 000a c83b bf2e d8bd
00000120: 62d2 da39 2b60 cf3d ab72 3bbd fbc6 df3d
00000130: 2b43 d7bd a517 afbd 8edb 7e3d ae06 91bc
00000140: 164f 1c3d 9b11 603d a913 1c3d 8689 d13c
00000150: fac6 a73c dda1 603d 3577 033d ae20 9cbd
00000160: a008 3f3d 3ab4 213d 56bf d7bd 0917 713c
00000170: f73f 893d fbb5 c33d 9ac2 493c a7b3 803b
00000180: 7f1d b5bd 2be6 f43c d2b3 40bd cd7f 083d
00000190: baa8 7fba b1df d03d 77ea 173d d1b9 bbbd
000001a0: f819 aabc 8167 043b 4eea 883d 4d06 04bd
000001b0: 8740 923d ac4a 95bd 73c6 9c3d 1cbf 83bc
000001c0: 9803 18bc 2efa 36bd cddf 883d f6b9 cbbc
000001d0: eb9b 0abd 5adc fb3b 4128 99bd 0e6b 853d
000001e0: f88e 783d 57e9 183c 0105 34bd ff40 7b3d
000001f0: 239b 2b3d cc3d 303c fba0 f63c 7771 353d
00000200: d7c6 093d 5cd0 d2b9 abf8 7abb 6802 cfbd
00000210: c30a f3bc f226 82bd 8cf6 a93d fb6b a3bd
00000220: b010 a03b 2058 78bc 8cc0 f7bc f3cb 903d
00000230: 97e5 93bd 4830 693c b010 83bb f68d 3e3d
